training_testing_code/checkpoint/SPLUT_M_0.001_4/model_G_A_i222000.pth (torch, 191621 bytes, 38 tensors)

weight f4 [64, 1, 2, 2]
00000000: 53e9 31c0 ed28 60bf 5a63 603f 23ed 6fbf
00000010: cd58 81bf 0116 6c3f 21b3 d93e 65df 05be
00000020: fedb ebbe d447 87bf be3c ac3f 7a93 893e
00000030: 98d1 03c0 f54e e83d cd1e e23d 21a6 b33f
00000040: a7b6 d2bf e713 e33f d919 6b3e ce96 b3be
00000050: 8157 32bf b025 233f 14e3 0e3e fc56 423f
00000060: 435b ce3d cfec 03c0 5bd7 813e e7f6 6cbf
00000070: e0a3 0abe e159 b8bf 14ee cbbd b47c e33f
00000080: 1fb7 2fbf 70af fcbf 0564 4a3f 73a5 b43f
00000090: e129 5ebf b6a0 093f ce25 5c3f e20f 69bc
000000a0: e51b 91bf 735e 9c3f d0ac 61bf 051a 0c3e
000000b0: 0e3b fe3f 33ff 06be 0795 b0bf e087 2abd
000000c0: 9e11 6c3f 4bb5 4a3e 5245 00c0 ea78 c23d
000000d0: 1699 2a3e 26c3 613e 660f 4b3f 1dc6 4bbf
000000e0: 7e49 d33d 6d3f 85bf 7d90 e33e f482 873f
000000f0: 38ac ca3e b8a5 b83f 298c 9ebd f388 683d
00000100: be63 453e cb87 d93f e384 36bf b72a e6be
00000110: e069 563f 83e4 19bf 72cf 12bf 9b7d 74c0
00000120: 3a87 89be 552e 063f 9cb7 b73e 1f0d a73e
00000130: a067 b3be 1bcb 7e3f 453c 85be 4fb3 60bf
00000140: 3d12 fa3e ffa1 c6bd 15de 8cbf 8bb5 49bf
00000150: d760 2ebf aa26 363f 69bf cfbe d683 0cbe
00000160: 8130 f43f a8a7 413e 1916 47bf 1e8f 85bf
00000170: 4cf2 fe3d f3c6 dbbb f993 a23f 0bbf 68bf
00000180: b3f8 723f 3613 8b3e 306f b1be 4ede 903e
00000190: 59f6 f63f d641 f2bf cb3f 4b3f ac07 96be
000001a0: 021a 4cbf fdee 2e3e 35a2 a9be ce39 933f
000001b0: dcdf 633d ca0d b93e e4d4 91bf 04af 01c0
000001c0: 198f 34bf e951 0abe 5574 f43e 62aa 893f
000001d0: 9363 16c0 d820 53c0 352b d3bf 8a3a 1ac0
000001e0: 3713 b43e c539 cc3e 1046 a4be bed0 c0bd
000001f0: d094 ffbf 03b9 bc3e bbe8 debf 30e0 513e
00000200: 3f2a 4cbf ff44 893e b071 993f df35 30bf
00000210: c547 963f aa76 67be a036 5f3f 75c9 7abf
00000220: 377f 76bf b28c b03f 1b7b a8be 7e08 3d3d
00000230: b8e8 b83f 08cd d3be dee2 6fbf 9d69 c43d
00000240: 6555 103e 02cd 5fc0 a894 01be 8920 153e
00000250: dd65 a93c 0c45 cdbe fd64 543f e7d7 603f
00000260: 6035 b1bd be48 543e ce03 6b3e 0b45 b3be
00000270: 90ac b2be 68f1 fd3f b48c 753f 771b cbbf
00000280: 39a7 ebbf 1e68 fabe 4c70 663f 5138 96bf
00000290: b96b 0a3e f08c 23be aec3 843f 696c 5b3d
000002a0: ac07 95be 4a15 61bf 8a69 4cbe a793 623f
000002b0: c8db 16bd 6839 853f 884d 66bf 2d66 fb3e
000002c0: 7a58 a5be b814 a0be 0ef9 81bf cd8c d63f
000002d0: 2013 95be 5a3e 4ebf a83c 01be f04e 9abe
000002e0: 57d2 a8bf a2ec 99be aa48 bc3e 1a33 bdbb
000002f0: 7fb1 30bf 783e 7e3f 2124 b1be fb1d 7bbd
00000300: 402a cd3e 2c2a 143f c02e abbf 5b55 7d3f
00000310: eff4 383d 4714 ca3e 7f3d f43e fbea abbf
00000320: 8a2c c6bf 75aa a4be dbdd ff3f b5ed 8c3e
00000330: 0a57 6fbf eb27 d93f faa1 8f3e c620 713f
00000340: 35ad 1f3b 5e30 adbf 196c 2fbf b81d 923d
00000350: 8943 2c3f cf19 5dbf a62c d03d 2337 323f
00000360: b698 803e 088d 0e3f 400a a5be d639 f1bd
00000370: dd27 503f d07c 7c3e 2213 b3bf 4501 0bbe
00000380: 7b93 473f 39a7 263f 7473 d63c 18ba c83d
00000390: 3c5d 9dbf 303c 903d d981 1c3f 3b1e 813f
000003a0: 1fa0 d5bf a9eb 393d 0d0e 9a3f b96b f23e
000003b0: 8311 1c3e 48ff 423f 0b39 e03e d671 073e
000003c0: b092 3bbf 6906 4c3e eb30 25c0 a47e c63e
000003d0: df81 5b3f 6bec 403e 5896 14bf 1a57 31be
000003e0: dada ddbf 2171 a93e a793 933f 6085 113f
000003f0: 72ca 9bbd 1d01 dbbf 5c1b 1bbe bc81 743e
-2.779866 -0.8756245 0.876516 -0.93721217 -1.0105225 0.92221075 0.42519477 -0.130735
-0.46066278 -1.0568795 1.3456037 0.26870328 -2.0596676 0.11343185 0.11041031 1.4035074
-1.6461991 1.7740449 0.22959079 -0.35075992 -0.6966477 0.6372938 0.13953811 0.7591398
0.100760005 -2.0613286 0.25359616 -0.92564243 -0.13539076 -1.4402429 -0.09957519 1.7772431
-0.68638796 -1.9741039 0.7905887 1.4112991 -0.8678265 0.5376085 0.85995185 -0.014224978
-1.1336638 1.2216324 -0.88154316 0.136818 1.9861772 -0.13183288 -1.379548 -0.041633487
0.9221438 0.1979572 -2.004231 0.09495719 0.1665996 0.220471 0.7932037 -0.7959917
0.10316752 -1.0409981 0.44446173 1.0586839 0.39584517 1.4425573 -0.07741577 0.05677123
0.1927633 1.6994566 -0.7129652 -0.44954464 0.837553 -0.60114306 -0.57347786 -3.8201663
-0.26860982 0.5241445 0.3588227 0.32627198 -0.35039997 0.99528664 -0.26022545 -0.87773603
0.4884204 -0.09698867 -1.1005274 -0.7879264 -0.68116516 0.71152747 -0.40575722 -0.13722166
1.9077302 0.18911612 -0.77768093 -1.0434301 0.12448558 -0.006707066 1.2701408 -0.9091651
0.94910735 0.27163094 -0.34655142 0.28294605 1.9293929 -1.8926342 0.79394215 -0.29302728
-0.79727185 0.17083354 -0.33131567 1.1502016 0.05563341 0.36143333 -1.1393094 -2.026307
-0.7053085 -0.13507809 0.47745004 1.0755122 -2.3498275 -3.2988796 -1.6497561 -2.409823
0.3517091 0.39887825 -0.32084703 -0.094148144 -1.9967289 0.36859903 -1.7414774 0.20495677
-0.7975196 0.26810452 1.198782 -0.688322 1.1740652 -0.2260386 0.87192726 -0.9796365
-0.96287864 1.3792937 -0.32906422 0.046150677 1.444602 -0.41367364 -0.93705547 0.09590457
0.14095075 -3.4968877 -0.12654364 0.14563192 0.020678455 -0.4009174 0.82966596 0.8782944
-0.086527586 0.20730874 0.2295067 -0.35013613 -0.3489728 1.9839296 0.9591782 -1.5867757
-1.8410407 -0.4890756 0.900151 -1.1735936 0.13517655 -0.15971732 1.0372217 0.053570185
-0.29107416 -0.8792311 -0.19962135 0.8850655 -0.036830693 1.0408144 -0.89962053 0.4910139
-0.32294065 -0.31265807 -1.015413 1.6761719 -0.29116154 -0.8056389 -0.12620795 -0.3013835
-1.3189191 -0.3006335 0.36774188 -0.005773914 -0.6902084 0.9931407 -0.34597877 -0.06130789
0.40071297 0.5787685 -1.3373642 0.9895837 0.045155462 0.39468595 0.47703168 -1.3431085
-1.5482342 -0.32161298 1.998958 0.27525106 -0.93492186 1.6965307 0.28053266 0.94190633
0.0024364714 -1.3530385 -0.6852432 0.07134575 0.6729055 -0.86367506 0.10164766 0.6961538
0.2511651 0.55683947 -0.32234383 -0.117786095 0.81310827 0.24656987 -1.3990214 -0.13574703
0.7795941 0.6509891 0.0261781 0.098011196 -1.2294078 0.0704273 0.6113563 1.0087351
-1.668949 0.04539076 1.2035538 0.4734781 0.15241055 0.7617078 0.4379352 0.13227019
-0.732707 0.1992432 -2.5811107 0.38768494 0.8574504 0.18840186 -0.58041906 -0.17318383
-1.7332413 0.33094123 1.1529435 0.5684414 -0.07606973 -1.7109715 -0.15147156 0.23877615

bias f4 [64]
00000000: 9393 c13d 1bc3 23be e35a b93d c294 2a3e
00000010: 10e2 fb3d fbe0 d4be 3bea b13e 7f87 c63d
00000020: 5f37 873e 278a 8cbe 53a8 363e 4faa 863e
00000030: 3134 9e3e a9e4 c9bd 99c3 58be 5c77 1cbf
00000040: 27fd 33be 6564 213d 60df 96be 652d 2e3d
00000050: d839 483e 8230 a43d 05bc 873d 0c3d c43d
00000060: 3df7 bbbe dde7 5b3e b030 81be 09d5 483e
00000070: e345 72be 0dab 4cbf 9018 85bd de8f 273c
00000080: b161 743e 5ae7 56be 82f4 943d 43e6 8ebe
00000090: 2b2b 0a3e 4e0d dfbd 9b02 133c 1d55 073e
000000a0: 8243 d63e 934f e7be 59b5 3c3e a6f9 f9bb
000000b0: 2768 833e efa8 18bf 2c65 dd3e 547f 343d
000000c0: 796d 1cbd f01e fd3d 69c2 48bc df75 3dbe
000000d0: 727f 1dbf c25c 5fbe 5c16 f0bc 8c92 423e
000000e0: 2d63 e7be 75be 49be 024a b23e 3bc2 bfbe
000000f0: b8a0 353f b54b 84be d861 a63d b5a8 9bbd
0.09451976 -0.15992396 0.090505384 0.16658309 0.122989774 -0.41577896 0.34749016 0.096938126
0.26409432 -0.27449152 0.17837648 0.2630181 0.30899194 -0.098580666 -0.21168365 -0.6111963
-0.17577039 0.039402384 -0.29467297 0.04252376 0.19553316 0.08017065 0.06627659 0.09581956
-0.36712065 0.21475168 -0.25232458 0.19612516 -0.23659472 -0.799485 -0.064988256 0.010227172
0.23865391 -0.20986691 0.07273199 -0.2791005 0.1349303 -0.108912095 0.008972789 0.13216062
0.4184838 -0.45177898 0.18428554 -0.0076286374 0.256654 -0.5963277 0.4324125 0.044066742
-0.03819034 0.123594165 -0.012253382 -0.18501996 -0.6152259 -0.21812728 -0.029307537 0.19001216
-0.45192853 -0.1970156 0.34822088 -0.37452874 0.7094836 -0.2583901 0.08124131 -0.07600538

weight f4 [64, 64, 1, 1]
00000000: b117 bb3e a2dd c73a e12b 673e 105b 9d3d
00000010: f8b9 aebd bb4a 8ebd c329 143e 882e 24be
00000020: 736c babc 0612 0a3e 4751 0d3f 2fb6 763e
00000030: ba75 b03e b5cc 3cbe 89d1 0c3f 8369 893e
00000040: 2e6a b3bc bb6f c6bd 3344 563c a2ce 5fbe
00000050: 365a a93e 5ab8 2a3e 91b0 a0bd 04a8 47be
00000060: 4a49 143e 88b7 ae3e 8f9b 36be 2534 97bd
00000070: 5a45 d3bd 6e14 e63d a41d 2f3e 71af 1bbd
00000080: 1cdc 28be 14fb 69be ab2f a93e 848b c33d
00000090: 759b 01bf 02ed 7ebb d515 b13e 55dd fdbe
000000a0: 91fe d23e c9be e33e 1371 18bd 33cc 33be
000000b0: e76d 673e d352 833e db5b 5cbe 815c 0c3e
000000c0: e64c 113e 56dd 60be 1c79 59be 246c a03d
000000d0: a103 c83e 437c e43d 0582 3cbe 8141 5a3d
000000e0: 31c9 713d 17d9 053d d924 b2be 2d4d c33e
000000f0: 814d 303f 749f 9e3d cdca 483e 6497 34bc
00000100: 93cf af3b bf4f bc3e 4989 6abf c5ab 913f
00000110: 7bb2 e03d 4b2d 8f3e 8d3b 053d 8564 243f
00000120: 420d a7be ae2a 9e3e 6314 ca3e 5ec3 73bf
00000130: e3f9 debe 80c4 4fbf 6b45 99bd b8fd 753d
00000140: 4f58 813e 5517 4a3e 2364 553c 0d62 203e
00000150: 7f1e c3bd df6e 233f ef55 9cbe f003 bfbe
00000160: 5512 a9be 6398 dabf e039 dc3e f690 a33e
00000170: 21f4 65be 6fe2 423f 94f0 82be b0a6 8f3e
00000180: fd75 94be 078f 54bf 244e 903e 4a2a 0abe
00000190: f93c d83c cabf 5abe 12ff 0bbe b3ff 9fbe
000001a0: 196a 1e3e 011e 253d 0050 953e 7b89 8d3d
000001b0: 44e1 303f fefe 84be 3ca2 25bd b6b6 3d3f
000001c0: b68a ba3d 8f63 74bd 879f 58be 0fbb 133e
000001d0: 0522 313e 6336 0fbe 67b2 d8bd f0cb 00bf
000001e0: 74ef 90bc 06e7 843e 8b03 f73e 534d 1bbc
000001f0: bf26 db3d a315 bcbe 3742 e53e 12f9 16be
00000200: 3fdf 963e 1488 bbbe 6dcf fa3e 69cc e1be
00000210: d868 cabe fb37 86be 95b8 623f 9ddc 033f
00000220: a66d d23e 66bd 80be 1702 a0be 5cf0 aebe
00000230: 41ec 7f3d 9bed 01bf ef0f 203e 56c1 1cbe
00000240: 6c3d 41bf 3fa6 b13d c573 9ebe bfbc 8bbd
00000250: e616 dfbc b389 8dbe ff04 5bbf dd8a 01bf
00000260: 59fc 7bbd 0e93 543e e87d 23be 7fc7 8bbe
00000270: 0722 bdbe f8b2 12bf 4804 35be 7f76 acbd
00000280: a63c 183d cf16 8ebe 2baf f3be ea33 ce3e
00000290: 0e11 aa3f 498b 0bbf 05df 9e3d 01f4 3bbe
000002a0: 2530 33bd 5d5a a6be 1efc 8ebe d938 b3be
000002b0: bc69 e3be 421f 4cbc 3652 fcbe ab78 0cbf
000002c0: 442c 42bd 0d70 97bd 4ec1 e2be c3ae 15bd
000002d0: e395 92bd 31ec 373e da24 e6be 7070 8b3e
000002e0: 77a9 323d 02f8 00be 1c4f d0bc 7508 5ebe
000002f0: c77e 1fbf 9633 54be 88f9 81be 9138 813d
00000300: 5c06 81bd 3222 2e3e d91e 4a3e c545 873d
00000310: 0320 243f 9f91 d13e 9c71 05be 943e f2be
00000320: 4c9c c73b 96a8 b73e 7941 133e 844e e9be
00000330: df24 283f 5014 ba3d ac27 53be db99 0bbe
00000340: 83a4 4b3d 7633 203f 70ac 563d 2dd5 793e
00000350: 0686 5d3e e24e b03d d2a3 8cbe ddbb 89bd
00000360: 4efd 64be b76e 02be 4d1a 1abe 1147 993e
00000370: 49a2 e1bc 899a 093f 4724 cfbe 7c23 793e
00000380: eb9d 0d3f 2da3 8ebe 4add 9e3e 54db cbbe
00000390: becc 1f3e d499 e4bc 3e50 8d3e 790f 6c3e
000003a0: 176b 66be 55b1 013e e15e fd3d 0167 9cbe
000003b0: 9562 743e dd24 4bbe 9e71 2fbd 1fda 8e3e
000003c0: 0f1d 13be 81e8 9a3e 794b d53e 69ae 2f3d
000003d0: 542e d6bd f952 88be cad1 a9bd 6764 4a3e
000003e0: 22a6 ef3b 4bac d23d b0bc 233f 4381 23bd
000003f0: d3c6 463f 0d10 0abf 30ce 7d3e 13f7 0abe
0.36541513 0.0015248547 0.22575332 0.076833844 -0.085315645 -0.069478475 0.14469056 -0.16033375
-0.02275679 0.13483438 0.55202144 0.24092935 0.34464818 -0.18437465 0.55007225 0.26838312
-0.021901216 -0.0968928 0.013077783 -0.21856168 0.33076638 0.16671887 -0.07846177 -0.19497687
0.14481083 0.34124398 -0.17832778 -0.07382993 -0.10315962 0.112343654 0.17101151 -0.03800911
-0.16490215 -0.22849685 0.3304418 0.09548095 -0.50627834 -0.0038898592 0.3458697 -0.49582925
0.41209844 0.44481495 -0.03721721 -0.17558365 0.22600518 0.25649127 -0.21519415 0.13707162
0.1418949 -0.21959433 -0.21237606 0.07833126 0.3906527 0.111565135 -0.18408974 0.053285126
0.05902976 0.032677736 -0.34793738 0.38144818 0.6886826 0.07745257 0.19608612 -0.011022422
0.005365321 0.3677959 -0.9161573 1.1380545 0.109715424 0.27964243 0.032527495 0.6421588
-0.32627302 0.30891937 0.3946868 -0.9521998 -0.43550023 -0.8115921 -0.074839436 0.06005642
0.25262687 0.19735463 0.013024363 0.15662403 -0.09527301 0.6384105 -0.30534312 -0.37307692
-0.330218 -1.7077755 0.43012905 0.31946534 -0.22456409 0.7612676 -0.25574172 0.2805686
-0.28996268 -0.8303074 0.28184617 -0.13492694 0.026396262 -0.21362224 -0.1367152 -0.3124977
0.1547016 0.040311817 0.29162598 0.06910988 0.6909373 -0.25975794 -0.040437922 0.7410692
0.09108488 -0.05966526 -0.21154605 0.14426826 0.17298134 -0.1398559 -0.105809025 -0.50311184
-0.017692305 0.25957507 0.4824489 -0.009478885 0.107007496 -0.36735258 0.4477708 -0.1474345
0.29467198 -0.36627257 0.48986378 -0.44101265 -0.39533114 -0.26214585 0.885629 0.51508504
0.4109928 -0.251445 -0.31251594 -0.34167755 0.06248117 -0.5075318 0.15631078 -0.15308127
-0.7548435 0.08674287 -0.309477 -0.0682311 -0.027232599 -0.2764412 -0.855545 -0.50602514
-0.061519954 0.20759222 -0.15965998 -0.2730064 -0.36940023 -0.57304335 -0.17677414 -0.08421039
0.037167214 -0.27751777 -0.4759458 0.40273982 1.3286455 -0.5450941 0.07757381 -0.18354799
-0.043747086 -0.32490817 -0.27926725 -0.3500431 -0.44416606 -0.012458624 -0.49281472 -0.54871625
-0.047405496 -0.07394419 -0.44288105 -0.03654362 -0.07157495 0.17961194 -0.4494999 0.2723422
0.043618646 -0.12594607 -0.025428347 -0.21682914 -0.6230282 -0.20722803 -0.2538569 0.06309617
-0.06300041 0.17005232 0.1973833 0.06605104 0.64111346 0.40931413 -0.1303162 -0.47313368
0.00609163 0.35870808 0.14380445 -0.45567715 0.6568126 0.090859056 -0.20620602 -0.1363291
0.049717437 0.62578523 0.052410543 0.24397726 0.21633157 0.08608796 -0.27468735 -0.06725285
-0.22362253 -0.12737547 -0.15049095 0.29937032 -0.027543204 0.53751427 -0.40457365 0.24329942
0.5531909 -0.27858868 0.31028205 -0.39815772 0.15605447 -0.027905382 0.27600282 0.23052777
-0.22501789 0.12665303 0.12371612 -0.30547336 0.23865731 -0.19838281 -0.042832963 0.27900788
-0.14366554 0.3025551 0.41659144 0.04289094 -0.10458055 -0.26625803 -0.08291967 0.19764863
0.0073135057 0.102867685 0.6395979 -0.039918195 0.7764713 -0.5393074 0.24785686 -0.13570814

bias f4 [64]
00000000: ccf6 1ebe c610 3ebd c715 f7bc 204a afbc
00000010: 2c38 bcbd 5584 81bc 6788 69be 5eaf 36bd
00000020: 0cdd a2bd 5cdd 323e 8a0c c83c 37c0 4cbe
00000030: 8860 873e 6e3c 883e d592 3cbd 6d00 7dbd
00000040: a8db 10bd 110e 8c3e 823e d83d 3057 9f3d
00000050: db4a 893d c6e0 953d e810 143e 56c6 ca3c
00000060: 03c2 863e c234 8e3e 682e dd3d dba6 8e3d
00000070: 855f 183e 10c2 bbbe d9b8 7a3c 272d dc3c
00000080: bff6 55be a733 05be f59d 063e c327 b6bd
00000090: e043 8bbd ae7a d03d 86d0 e4bd e8fe a63d
000000a0: 08ce e03d 72dc b2bd 7271 c0bd c0df 6dbc
000000b0: 0497 ed3e eedd 7a3e 1121 8f3e 1bc8 453e
000000c0: d7a1 e6bd a755 bdbd c7ab 58bd 4d01 543e
000000d0: e64c d3bd 040f 543e 762e 08be 72d1 583e
000000e0: 592c 2c3e f2ea 473e 82f5 dc3e d6c9 123e
000000f0: 435a 013e 677f 55be 7bc5 edbe 5cef 6fbe
-0.15523833 -0.046402715 -0.030161751 -0.02139765 -0.091904014 -0.015810171 -0.2280594 -0.044600837
-0.079523176 0.17467254 0.024420042 -0.19995199 0.26440835 0.26608604 -0.046038467 -0.061767984
-0.03536573 0.27354482 0.105587974 0.077803016 0.06703731 0.07318263 0.14459574 0.024752777
0.26319894 0.27774626 0.10799867 0.06965419 0.14880188 -0.36671495 0.01530286 0.026876999
-0.20894907 -0.13007985 0.13146193 -0.08894303 -0.068000555 0.10179649 -0.11172585 0.08154088
0.10976797 -0.08733453 -0.09396638 -0.014518678 0.46404278 0.24498722 0.27954915 0.19314615
-0.11261337 -0.092448525 -0.052898195 0.20703621 -0.103174016 0.20708853 -0.13298973 0.21173647
0.16813792 0.19523218 0.43156058 0.14334807 0.12632088 -0.20849381 -0.46439728 -0.23431152

weight f4 [8, 64, 1, 1]
00000000: 7e85 e8bb 74c4 2dbe 9fcc aebd 1b01 88be
00000010: 3b23 a0be ba51 103e bbf6 2c3f 1006 b2bd
00000020: 3349 34be 05fa e1be 113f 89be a271 a7bb
00000030: 5704 f6bc 55c0 e9bd 61a6 663d 7363 d33d
00000040: 0183 bb3e 230e cabe d562 853e bdc8 e5be
00000050: 9b31 02be 020e df3e a07a fdbd cda6 ef3d
00000060: 3759 80be 4e86 0ebe 853a 723d daa4 673e
00000070: e048 2e3e e483 b23d c178 2b3e 6908 a63d
00000080: c397 86bd ca0c 063c 3ac3 35be 833b c5be
00000090: 1a04 243e 0c3f 783d ce42 213e e5c8 fb3d
000000a0: b229 e53e 7ebc 483e 1ca0 c03e 2835 183e
000000b0: 59aa 6a3d cb0f 74be 11d5 1abe 1292 f63d
000000c0: 9217 9b3e 42d4 023c d613 be3d fe14 c53e
000000d0: 059b 24be 3dbb 533e 4315 fdbc f96d d9ba
000000e0: 30fa b3bc 940a 7ebe ea75 3ebe 8e3f 763d
000000f0: d5c1 1a3d db14 dd3e 564e 073e 111a 05bf
00000100: 04e7 7f3d d26a 4ebd 3149 3fbe 5f86 cb3e
00000110: c661 1dbf c0ec f1bd ede0 623f 1b03 93be
00000120: bf51 03be d31e 51be 1cca 1c3f 7648 f7be
00000130: 0651 73be d39c b7bd ce5c 003e 0182 88be
00000140: 992c e7be 4b95 97be d1b4 313f bdd6 afbe
00000150: 02b8 43be 461f 62bd 024b 7d3e 98c8 8d3e
00000160: 8235 063f db62 e83d c3e7 f0be 5b23 1abe
00000170: 93e1 c6be 61e8 c63e f36d 92bd d7d2 c73d
00000180: 35df 213e 229a b5be a9e1 ce3d 6b72 31bf
00000190: 72b2 83bd 49b0 67be 8779 183e 5e43 8abd
000001a0: c2ad 313f 394a 733e 8b4d 903e 9590 4fbe
000001b0: 5dbd a4be 489a 073d d1e1 093f 7f23 a6be
000001c0: ad27 083f f0da a2bd f558 dbbe 7f61 ad3e
000001d0: f6f3 933e 66c4 6d3e 5ec2 e53e 5588 0ebe
000001e0: d9e9 993e 50eb 60be f0c3 4ebe 95f5 2ebe
000001f0: ec3d cc3b fd93 1b3f 122a 05be b16f 34bf
00000200: b63d bdbd 916c 80be 5d1c 253f d1d0 9b3d
00000210: 5d77 f5bd e203 84bc f5f5 cfbc 32ba 9fbe
00000220: 3909 a2be 3233 13be 88ab 9abd 9b24 d63e
00000230: 5207 22be a01b c63e e62d ddbd 7b83 5a3e
00000240: 7d24 15be 60db 3f3d 6be3 eebd 2ba3 023e
00000250: 9bd6 3a3e d01c 6a3f cab8 09bf 5410 e63b
00000260: fe5a 04bf eede 1cbf edba 74bd 0274 a1be
00000270: 6a87 833e 6a8e 42be 7de1 4b3d 3cd4 cabd
00000280: 9032 f23e 91d6 ab3c 97ca 6e3b 2780 2ebe
00000290: 1522 4e3e 91ee 47be c85b 213e ad55 973e
000002a0: 728e f43e 2934 77bd c0b9 d2bc 63d2 d8bc
000002b0: d807 9c3e 761a bf3d 0444 1a3e 06b9 603e
000002c0: f1dd 33bd 72f8 8dbe 6489 253e 62ea 43bf
000002d0: a4d0 c5be 38c3 aabe c10b b8be ee69 0dbe
000002e0: 061b ecbd 0d21 173e 4a56 453e 292b b6be
000002f0: f663 9a3e 7d65 a93e da36 b43e e906 f9bc
00000300: c172 913d 07b6 d63c f3ac 813e 8d20 583e
00000310: 69c4 7b3e a02b e9be f274 8b3f 1af2 4ebe
00000320: 72aa afbd 5adb acbe c164 593b 4eb2 113f
00000330: b246 f33e 86c7 32bc ffda a73e cfb6 b43e
00000340: cfa3 ad3e d069 15bf 43c3 c3be c556 f0be
00000350: 40fa 2ebf 115b 9d3e 5ea8 243e 8bfb 6abf
00000360: 90b3 cabd 2015 783d 7d54 253f 246c a83e
00000370: 7e5f dfbe 5f8b 933e fac2 5b3e 3ca5 8c3d
00000380: 350b 233c 7fde 613e 09b8 d5be cd00 313e
00000390: de9c fabe c285 f03e d8db f9be aef7 51be
000003a0: a6de 673f 007a 2ebf 8f24 143f 61a6 d73e
000003b0: 58a3 7cbe 540a b0bd 2905 9fbe 217e c23e
000003c0: ea78 93bd ce3f ad3e 3196 76be aba4 23be
000003d0: 7e64 913e cccc 543e 56a1 5d3d 7d94 4c3e
000003e0: b7ca e2be 290e 903e ec48 d9be 6d40 11bf
000003f0: 2bcb d9bd a1a5 29bb 3e76 bd3e 5cb4 96bf
-0.0070959916 -0.16969472 -0.08535122 -0.26563343 -0.3127688 0.14093676 0.6756398 -0.086925626
-0.17606048 -0.44136062 -0.26805928 -0.0051099816 -0.030031366 -0.114136375 0.056311015 0.10321703
0.36623386 -0.3946391 0.26051965 -0.44879714 -0.12714235 0.43565375 -0.123769045 0.117017366
-0.25068066 -0.1391842 0.05913784 0.2262148 0.17019987 0.087165624 0.16745283 0.08107073
-0.06571915 0.00818176 -0.17750254 -0.38521966 0.1601719 0.060607 0.1574814 0.12294177
0.44758373 0.19603154 0.37622154 0.14864028 0.057291362 -0.2383415 -0.15120341 0.120395795
0.3029142 0.0079851765 0.09281127 0.38492578 -0.1607476 0.20676894 -0.030893927 -0.001658856
-0.021969885 -0.24808723 -0.18599668 0.060119204 0.03778251 0.43179974 0.13213477 -0.519929
0.062476173 -0.05039484 -0.18680264 0.39750955 -0.61477315 -0.118127346 0.8862446 -0.28713307
-0.12824152 -0.20421915 0.61245894 -0.4829747 -0.23761377 -0.08965459 0.12535402 -0.26661685
-0.45151213 -0.2960609 0.6941653 -0.3434352 -0.19113162 -0.055205606 0.24735644 0.27692103
0.52425396 0.1134698 -0.4705182 -0.1505255 -0.38843974 0.38849166 -0.071498774 0.097570114
0.15807803 -0.35469157 0.10101635 -0.6931521 -0.0643052 -0.22625841 0.14890109 -0.067511305
0.6940576 0.23758782 0.2818416 -0.20269997 -0.32175723 0.03310612 0.53860193 -0.32448956
0.5318554 -0.07951915 -0.42841306 0.33863446 0.28897065 0.23219451 0.44874853 -0.13919194
0.30061224 -0.21964765 -0.20191932 -0.1708587 0.0062329676 0.6077269 -0.1300433 -0.7048293
-0.09240286 -0.2508283 0.64496404 0.07608188 -0.11985657 -0.016115133 -0.025385836 -0.31196743
-0.3164766 -0.14374998 -0.07552248 0.41824803 -0.15823105 0.3869295 -0.1079977 0.21339218
-0.145647 0.04684007 -0.1166447 0.12757556 0.18245928 0.91450214 -0.5379759 0.0070209894
-0.51701343 -0.61277664 -0.05974858 -0.3153382 0.2568925 -0.18999639 0.04977559 -0.09903762
0.473042 0.020976337 0.003643667 -0.17041074 0.20130189 -0.195246 0.15757668 0.29557553
0.47764927 -0.06035248 -0.025723338 -0.026467508 0.30474734 0.09331219 0.15065008 0.21945581
-0.04391283 -0.2772861 0.16165692 -0.76529515 -0.38635743 -0.33352065 -0.35946468 -0.1380994
-0.11528592 0.14758702 0.19271198 -0.35579804 0.3015439 0.33085242 0.35198098 -0.030398803
0.07101966 0.026209844 0.25327262 0.21106167 0.24586643 -0.45541096 1.0895064 -0.20209542
-0.08577432 -0.33761102 0.0033171626 0.56912696 0.47514874 -0.010911828 0.32784268 0.35295722
0.3391404 -0.5836458 -0.3823491 -0.469412 -0.683506 0.3073354 0.16079852 -0.91790074
-0.0989753 0.06056702 0.64582044 0.32895005 -0.43627542 0.2881727 0.21461096 0.068674535
0.009951402 0.22057532 -0.4174197 0.17285462 -0.48947805 0.4697705 -0.4880054 -0.20504639
0.9057411 -0.6815491 0.57868284 0.42119125 -0.24671686 -0.0859572 -0.31058624 0.37986854
-0.07200797 0.33837742 -0.24080731 -0.15980785 0.28396982 0.20781249 0.05410894 0.19978519
-0.44295284 0.28135803 -0.42438447 -0.5673893 -0.10634454 -0.0025886076 0.37004274 -1.1773791

bias f4 [8]
00000000: 44bf 29be 0509 b0bd 4abf 29be 1109 b0bd
00000010: 35c3 6bbc c546 0abe 5cc3 6bbc cb46 0abe
-0.16576868 -0.0859547 -0.16576877 -0.08595479 -0.014389803 -0.13503559 -0.014389839 -0.13503568

weight f4 [64, 2, 2, 1]
00000000: d00f 78bf a2d6 023e 440b 873e 886a a93d
00000010: 21d3 92be b6a7 69be 2cce f8be e2ee 10bf
00000020: 66d3 45be 7b2d e0be d081 1d3f 7c6b d8bc
00000030: 63c0 abbd 548a 533f 96b4 6fbf d03d af3e
00000040: 4c71 81be f211 dd3e dbcf 1b3e c433 d3be
00000050: 13a9 723f de82 bc3e e34c 4b3e c87e 213e
00000060: c5fd 283e 3b01 afbe 9b4b 193e 1010 f43e
00000070: 447a 043c aa95 533e 5543 c2be 8d0e 253f
00000080: ddf8 1f3f 8269 803f b568 d23e a997 6c3e
00000090: 0ba3 f53e b869 a7be ef14 d0be b463 03bd
000000a0: b742 b53d 4357 2e3f 389f a13d fbf5 c2be
000000b0: 1937 b0be d9dd 053e b5cc bbbe 0cae 163e
000000c0: 812f 8cbe af7d fbbe 9945 0bbe f7d0 00bd
000000d0: 7879 2c3f 96ab aebe 537c 043f 4d94 1f3e
000000e0: bb85 eb3d 6f8e c93e 242c ec3e 2863 8abf
000000f0: 420c fd3d d015 f73e 57f6 95bb 8732 d83d
00000100: f0ef f33e 5fbe 553e d5ac 91bf 2412 1ebf
00000110: 6d20 323f c699 233f be7b 773d 33d0 bebe
00000120: 9856 263f 9748 5cbe 2065 16bf 024b 21bf
00000130: 3a55 d53e 463b 753f a2e7 c53e a2f3 bdbd
00000140: 2b36 d7be 2f68 d1bd fd08 223f 2503 f2be
00000150: 344d c83e 848b a4bc 2fab ddbe 0fd3 2abe
00000160: f5c9 0e3e 992f d83e a005 1d3f 3826 0fbf
00000170: f04c dcbe 6f8f bdbc e68c 5f3f d4b7 a23d
00000180: a856 883d 4680 2ebf 9c86 55be fc21 0dbf
00000190: 4ee3 5bbf 3064 373f cb7e f23e f193 953e
000001a0: 1461 e53d ad0e 02bf 1eae 06bf 56ca c53e
000001b0: 03f5 24bd 9863 ccbe 2876 413e 552f 6cbe
000001c0: 9c8c 5e3e 5f17 12bb 79f5 3abe 04c8 68bd
000001d0: cfd3 2cbf 3457 6abf 6077 24be c665 d1be
000001e0: 4dbb 80be 2c7f 723e 555d 6abe 58d1 b2be
000001f0: a262 13be ad63 d43e d6d8 013f 13d9 94be
00000200: 3d65 f33c d2c3 023d 35c5 26bf b541 be3e
00000210: a60a 963e dd3c 28be 0d21 9abf 28ed ac3c
00000220: 36d3 1ebd 1c5a 0f3f c184 073f 5fc5 e13e
00000230: 3e72 d63d 6607 573e 5163 35bf 68f3 98be
00000240: 968b 513e 0546 2d3f c39f 343f a99b 0dbf
00000250: e85b 35bf 0bdc 563e 6939 1f3f 9a5d c8bd
00000260: d06c 99be e007 8cbe 0d78 c93d 5a42 0c3f
00000270: 5f7c bd3e 83d8 0ebd 1ed7 24be 5f4e 73be
00000280: 2fcd fdbe 4bcb 26bf 87ee 15bf a07e a0be
00000290: b69f 23be 1d42 47bf 8e8f 9abe d1ba c8bd
000002a0: a082 17be e9b5 0e3f a086 b23f b409 afbe
000002b0: 4551 803e 8980 63be e755 b9bd b408 8e3d
000002c0: 6ba2 fe3e 688f 35be 9e08 86be 726e ec3e
000002d0: 814c 8dbd dd94 993e d387 31bf 3225 99be
000002e0: fdf7 cf3e c3aa 7e3e cf6f e0bd 85b3 203e
000002f0: 9d56 1cbe 0c1c 163d 5bf8 a43e bebe d63d
00000300: 322b 273f 7cb5 2b3e 28e4 34be 4af4 853d
00000310: 8cd2 29bf c8ad 7dbf 4767 54bd 85e0 763f
00000320: 3c9a 073f 9a93 1e3f f71d 80be 6f80 91be
00000330: a0cd 993d 8679 9c3e d310 d33b da75 febe
00000340: fed0 88be d02d ef3e 18ce b33e 3de9 8bbf
00000350: 88ee acbe 8a64 43be e069 ed3e 8eb0 45bf
00000360: 1891 87bd 72b9 67be 1336 b5bd 1c00 9a3f
00000370: 1760 2d3e 53bb 9a3d 2120 843f ff6f dabd
00000380: e3d2 d2be eba9 9b3e 3ea0 953e 6bbf 333e
00000390: 6a49 19be e48a 70bf efce fbbe e60b b13f
000003a0: 0b93 f63e 1dfc 053f 6f41 553f e741 e2bd
000003b0: 58c3 a73d 222d a0bf 0b8e 08bf 0659 423e
000003c0: 4b5e 823e b256 3e3e 32a3 6b3e cc97 d8be
000003d0: 3464 443f d4d9 293e 503d 113f 8014 95be
000003e0: 9e25 8cbf fc65 423d 884f 25bf cf27 d43d
000003f0: 27b1 e3b7 b71c bdbc abac cbbd cdee 1cbf
-0.9689913 0.12777188 0.26375782 0.08272272 -0.28676704 -0.22817883 -0.48594797 -0.56614506
-0.19318923 -0.437847 0.61526203 -0.02641844 -0.08386304 0.82632947 -0.9363493 0.34226847
-0.2528175 0.43177754 0.1521601 -0.41250432 0.94789237 0.36818594 0.19853549 0.1577102
0.16503055 -0.34180626 0.14970247 0.47668505 0.008085791 0.20662561 -0.37941995 0.6447533
0.6248911 1.0032198 0.4109551 0.23104729 0.47975954 -0.32697845 -0.4064097 -0.032077506
0.088506155 0.681019 0.07891697 -0.38078293 -0.34417036 0.1307291 -0.36679617 0.14714831
-0.27379993 -0.49119326 -0.13600768 -0.031449284 0.67372847 -0.34115285 0.51752204 0.15583916
0.115001164 0.3936648 0.46127427 -1.081151 0.123558536 0.4825883 -0.004576485 0.10556512
0.47643995 0.20873402 -1.1380869 -0.6174643 0.6958073 0.63906515 0.060420744 -0.37268218
0.6497588 -0.21512066 -0.58748055 -0.6300508 0.41666585 0.9579357 0.38653284 -0.09274985
-0.42033514 -0.102249496 0.63294965 -0.47268024 0.391214 -0.020086057 -0.43294665 -0.16682075
0.13944228 0.42223814 0.6133671 -0.5591769 -0.4302745 -0.023139684 0.8732437 0.07945219
0.06657153 -0.6816448 -0.2085213 -0.5512998 -0.85893714 0.7163725 0.4736236 0.29214433
0.11200157 -0.50803643 -0.5260943 0.38630933 -0.040272724 -0.39919734 0.1889273 -0.2306493
0.21733326 -0.0022291762 -0.18257703 -0.056831375 -0.67510694 -0.9153931 -0.16061163 -0.4089796
-0.251429 0.23681325 -0.22887166 -0.34925342 -0.14393094 0.41482297 0.5072149 -0.29071864
0.02971136 0.03192503 -0.65144664 0.37159505 0.29305 -0.16429467 -1.2041336 0.021109179
-0.038775645 0.5599687 0.5293694 0.44095895 0.10471009 0.20998916 -0.7085467 -0.29873204
0.20463404 0.67684966 0.7055628 -0.55315644 -0.7084336 0.20982377 0.62196976 -0.09783478
-0.2996583 -0.27349758 0.09837351 0.54788744 0.3700895 -0.03487445 -0.16097686 -0.23760365
-0.49570605 -0.6515395 -0.5856709 -0.31346607 -0.15978894 -0.77835256 -0.3018765 -0.098012574
-0.14795923 0.5574632 1.3947334 -0.3418709 0.25062004 -0.22217001 -0.09049588 0.06935254
0.4973329 -0.17730486 -0.2617845 0.46178013 -0.068993576 0.29996386 -0.69347876 -0.2991119
0.40618888 0.24869828 -0.10958826 0.15693481 -0.15267415 0.03664784 0.3222073 0.104856
0.65300286 0.1676845 -0.1766516 0.06540735 -0.66336894 -0.99093294 -0.051856305 0.9643634
0.5296972 0.6194397 -0.2502286 -0.284183 0.07509923 0.30561465 0.0064412146 -0.4969929
-0.26721948 0.4671464 0.35118175 -1.0930554 -0.33775735 -0.19081321 0.4636984 -0.77222526
-0.06619471 -0.22629336 -0.088482045 1.2031283 0.16931187 0.075552605 1.0322305 -0.10665893
-0.4117652 0.30403075 0.29223818 0.17553489 -0.14969411 -0.9396193 -0.49181315 1.3831756
0.4815906 0.5233782 0.8330297 -0.11047726 0.08191556 -1.2513773 -0.5334174 0.18979272
0.25462565 0.18587759 0.23011473 -0.42303312 0.767154 0.16587001 0.5673418 -0.29117203
-1.094898 0.04746054 -0.6457448 0.103591554 -2.7143002e-05 -0.023084981 -0.09945043 -0.6130188

bias f4 [64]
00000000: f46c 943e 0267 bdbd 9e43 04bf 6e47 743e
00000010: b066 eebe b93d 49bf 038f 1fbf cb43 10bf
00000020: 895b ffbd 812a 95bc 9b4c 68bf 5f6e 72bf
00000030: 6928 92bf c69f 6dbd a701 7c3f 7594 92bf
00000040: efde 7ebd b112 09bf 8786 14bf d622 84bc
00000050: 1821 eabe e99f 9d3d a424 47bf cfe0 283e
00000060: d2cc 23bf 1e49 c13d f30c 3bbe 3214 41bd
00000070: ecee 6abf 7477 863e 0efa 91bf 6c75 e53e
00000080: 89ca 49bf cad7 4cbf 7609 31bf 53a0 1d3f
00000090: a554 95be 89a1 87bf 17b6 2ebe e7e3 7fbf
000000a0: d944 0abf 7f7f 1cbf f006 9ebd 3dac 92bf
000000b0: aed5 21bf 589b 2cbf 7e8e 913e eb47 6ebf
000000c0: 14c0 6ebf 993f cebe b5fb 26be 4992 f6be
000000d0: 60c7 5fbf d4d7 0dbf fcef f3be d70f f9bd
000000e0: de4a bdbf 4cdc 4d3e 0ba5 463c 55e5 db3e
000000f0: c3d1 21bf 1c37 2dbc 7d83 8a3e 6c6f b3bf
0.28989375 -0.09248163 -0.51665676 0.23855373 -0.4656272 -0.78609806 -0.62327594 -0.56353444
-0.12468631 -0.018208744 -0.9074189 -0.9469966 -1.1418582 -0.0580137 0.9844002 -1.1451555
-0.062224325 -0.53544146 -0.5801777 -0.016129892 -0.45728374 0.07696516 -0.77790284 0.16492008
-0.63984406 0.09437774 -0.18266658 -0.0471384 -0.91770816 0.2626301 -1.1404436 0.44816148
-0.7882467 -0.8001677 -0.6915506 0.6157276 -0.2916614 -1.0596172 -0.1706165 -0.99957126
-0.54011303 -0.61132044 -0.07716167 -1.1458813 -0.63216674 -0.67424536 0.28429025 -0.9307849
-0.9326184 -0.40282896 -0.16306956 -0.48158482 -0.874136 -0.5540745 -0.4764403 -0.12161224
-1.4788473 0.20103568 0.01212431 0.42948404 -0.63210696 -0.010572221 0.27053443 -1.4018378

weight f4 [64, 64, 1, 1]
00000000: 69fe a23d fc51 a2bd 15a6 953e d95c 41bd
00000010: 3c1a 083e fca5 29bf 9c47 923d 4da3 9c3d
00000020: 9378 113e 37f2 86bd c122 dabd 5c19 ac3e
00000030: 9d7f 1e3f 141d 12be d43a 4ebe 453c 183f
00000040: d1be 8ebe dab2 0e3e 0bc6 47bd dc25 953e
00000050: 04a4 2b3d 8bc8 2cbe 3ff4 093d aa4f f9be
00000060: dbee 873e 7b32 a9bd d352 86bd e56f 273e
00000070: a7a4 38bd c553 843d d475 5c3e 0ffe f4be
00000080: c294 043e 79bf 13bd 58d2 d13d 527a 7bbe
00000090: c28f 3b3d 5524 36bd a154 8e3e 90a5 893e
000000a0: 66de d5bd 6073 e43e d720 4a3e 3f7c 843f
000000b0: 9f8a 38be a6ad a03e fc22 08bf abba 163f
000000c0: 314b 73bf 59da 233d 17fd 8a3e da15 0f3f
000000d0: ce03 953e 7b44 3bbe 4acd b8bd 2ede 06be
000000e0: 5170 823e a102 98be 27e5 233e 9072 f0bc
000000f0: 2d10 be3d ab52 b83e f2fe c7bd 9d75 0abd
00000100: 3836 0ebe 9b87 9c3e 19eb 8c3e 91cd 5fbe
00000110: 6c58 eb3c 08f6 34be 170d 833e 75bd c53e
00000120: d3cf be3e 5427 4cbc 686c 053e 3bf5 bf3e
00000130: 7479 6e3e 67c4 903d dff4 aebe ecbd 0c3f
00000140: 297b 62bd f48d 68be de3e 01bd 7d3f 013e
00000150: c9ec 17be 5464 47be 8129 d33e 1d51 54bd
00000160: 93e5 00be e1ab 6fbd dfe1 dcbe e02d 6ebd
00000170: 6a9f 6e3e d321 92be 11f6 d73e 3db5 8e3e
00000180: 12c6 c53d 45f5 843d 6f6d d1be c1b1 bbbc
00000190: 7511 1b3e d78f 303e 32e4 cdbc 506c 9b3e
000001a0: 36f8 c0bd bc85 2b3e 8669 d23d 4d08 ed3e
000001b0: 49d4 acbc a58a 673e 1eeb d1be 183c 213f
000001c0: d217 8dbe 6e3d 0ebd cf19 9a3d 26ab 9c3e
000001d0: d824 e03e ad2e c43d b4b5 c5be 06bd 693e
000001e0: aa68 653d bc3e dd3d c757 633e 0559 f53d
000001f0: 6913 f0be 01ab 853d 9940 96bd d809 0abe
00000200: 58fe 7e3d d9c8 b5bd 1a96 7c3c a9ea 3fbe
00000210: bed1 163d f1a2 763c 5fdc c1be 8423 40be
00000220: 13a4 23be 6601 3cbf b324 6f3e 4d87 9f3e
00000230: c761 cd3e 065e 053e 6969 64be 0d10 4b3e
00000240: 559f 64bd e11b c03e 6950 22be 481a 6a3e
00000250: 247a 923d 6315 ecbe dd52 3e3e 9ec6 3dbe
00000260: c5c6 3cbd 2848 863d e606 ec3d b60c 063c
00000270: 66b5 a2bc f60e 083e 6633 903e 1b2c 7fbe
00000280: 9270 84bd 10ce e8be 5d9d 90be 8231 0c3d
00000290: 1a81 d7be 0077 813e 18fd 97be b80c 1c3f
000002a0: cbe4 9a3e 1745 4a3d 44a1 56be df7b 72be
000002b0: 6e14 1cbe 9095 0b3e 5a26 ef3d 4f20 0a3e
000002c0: f394 77bc ebd8 20be 1098 a9be 2030 bbbd
000002d0: f9f1 913e 77bb d7bb 8218 2c3f cbf8 83be
000002e0: 0184 a03e 5240 95bd e58f 9c3e 2b3f 6cbe
000002f0: 3f79 e13e 8b56 62bd af48 343e c639 13be
00000300: 6ce9 91be bc68 2dbf fbf5 893e c96c 28bd
00000310: 519f 673e 56f3 a5be 12d5 483d 844a 213f
00000320: 7142 613d 8b7d ad3e a2f1 ef3e 6dc4 a1be
00000330: 9ce1 8cbd 271c a63e bd98 a73d da64 c13d
00000340: 5465 cd3d 7a50 92bd d8ef fcbd 7184 0abd
00000350: 5f41 e63d 8077 9ebe 23a5 2f3e 09e7 42be
00000360: a219 5f3d bd55 44be ca99 8fbd e49d 2a3e
00000370: 7a17 13bf a45b 64bd 0887 ab3e acc6 abbe
00000380: e684 e7be 8b9c b6be c897 38be 05c1 0e3e
00000390: 3666 853e b377 4e3e ece7 46be 529d b83e
000003a0: 7be7 eabe 6d0d 853e 5065 12bd c120 c13e
000003b0: f9e1 8c3e 3f27 303e 7c9e 43be 1d5a c0bd
000003c0: 7b8b 37bf 0879 f3bd 9f04 343e e8e1 ecbc
000003d0: 3fec 39be 41c9 073e 255f 6f3e 6615 043e
000003e0: bea3 9a3e b9a4 9cbe 6eb0 913e aa62 57bd
000003f0: 83e7 7b3e 91ec e3bc 07ac 27be f5ee 46be
0.07958681 -0.079257935 0.29228273 -0.047207687 0.13291258 -0.662689 0.07142565 0.07648335
0.14206152 -0.065891676 -0.1065116 0.33613098 0.6191347 -0.14268905 -0.20139629 0.59466964
-0.27879956 0.13935414 -0.048772853 0.29130447 0.041904464 -0.16873376 0.033680197 -0.4869359
0.2654942 -0.082615815 -0.06558766 0.16351278 -0.0450789 0.0646129 0.21529323 -0.4785008
0.12947372 -0.036071274 0.10245198 -0.2455838 0.045791395 -0.044468243 0.27798942 0.26884127
-0.1044281 0.44619274 0.1973909 1.0350417 -0.1802163 0.31382483 -0.5317838 0.5887858
-0.9503661 0.040003154 0.27146217 0.5589272 0.29104465 -0.18287842 -0.09023531 -0.13170692
0.25476316 -0.29689506 0.16005383 -0.029351503 0.09280429 0.3600057 -0.09765424 -0.03380357
-0.1388787 0.3057221 0.27523115 -0.21855761 0.028728686 -0.17671978 0.25595924 0.38621107
0.37267932 -0.012460548 0.13029635 0.37491783 0.23288518 0.07068711 -0.34171197 0.549773
-0.055293236 -0.22710401 -0.031554095 0.12621875 -0.1483642 -0.19471866 0.41242602 -0.05183517
-0.12587576 -0.058513526 -0.43141076 -0.05814922 0.23302999 -0.2854143 0.4217992 0.2787265
0.096569195 0.06492094 -0.40903804 -0.022911908 0.15143378 0.1724237 -0.025133226 0.30356073
-0.094223425 0.16750234 0.10274033 0.46295395 -0.02109732 0.22611482 -0.40999693 0.6298232
-0.27557236 -0.034726553 0.07524454 0.30599326 0.4377811 0.09579215 -0.3861519 0.22826013
0.05600802 0.10802981 0.22201453 0.1197987 -0.4688981 0.06526757 -0.0733654 -0.13480318
0.06225428 -0.08876199 0.015416646 -0.1874186 0.03682112 0.015053497 -0.37863442 -0.18763548
-0.15980558 -0.73439634 0.23353843 0.31157914 0.4011366 0.13024148 -0.22305836 0.19830342
-0.055816013 0.3752127 -0.15850987 0.22861588 0.07152203 -0.46110067 0.18586297 -0.18532798
-0.046088 0.065567315 0.11524753 0.008181741 -0.019861888 0.13286957 0.28164214 -0.24919169
-0.064667836 -0.45469713 -0.2824506 0.0342269 -0.42090684 0.25286102 -0.29685283 0.6095691
0.3025268 0.049382295 -0.20959955 -0.23680066 -0.15242168 0.13631272 0.11677237 0.13488887
-0.015111196 -0.15707748 -0.33123827 -0.091400385 0.28504923 -0.006583627 0.67224896 -0.2577575
0.3135071 -0.07287659 0.30578533 -0.23070972 0.44037816 -0.055258315 0.17605852 -0.14377508
-0.284984 -0.67737937 0.2694548 -0.04111937 0.22619368 -0.32412213 0.049031325 0.63004327
0.054995004 0.33884844 0.4686404 -0.31595173 -0.06878969 0.32443354 0.081834294 0.09443064
0.100290924 -0.07144256 -0.12350434 -0.033817712 0.11242937 -0.30950546 0.17152838 -0.19033445
0.054467805 -0.19173332 -0.07011755 0.16661793 -0.574577 -0.055751458 0.33501458 -0.33550012
-0.4521858 -0.35666308 -0.1802665 0.13940819 0.26054543 0.20162849 -0.19424409 0.36057526
-0.4587973 0.25986806 -0.03574115 0.37720302 0.27516153 0.17202471 -0.19103426 -0.09392188
-0.71697205 -0.11888319 0.17579888 -0.028916314 -0.18156527 0.13260366 0.23376139 0.12898788
0.3020305 -0.30594423 0.28454918 -0.052584328 0.24600033 -0.027822765 -0.16374217 -0.19427092

bias f4 [64]
00000000: 82af b7bf 60c2 89bf 1c1f 06be 996d aabe
00000010: ab8d 1f3e 1199 e3be a814 4b3e 8ea9 4bbf
00000020: dcb2 8abe 500c 373e b879 adbe a494 13bf
00000030: 62ab f13e 4cb3 3a3d c364 efbe 7e50 62be
00000040: fcb4 06bf 5279 76bd ee44 eb3e 93a6 b0be
00000050: 9233 2fbf ea76 27bd 8f04 04bf cfb3 61bf
00000060: dcac 8e3e 7509 36be 01c0 fdbc 9178 ab3e
00000070: 7040 c2bc 3c4a 673e 5547 9fbe ed1a 91be
00000080: a3f5 38be c920 a13d 6fb7 14bd e442 61be
00000090: 0a17 043f 256e 2cbe f585 e0bc 6635 3abd
000000a0: 3c1d 303e 9e7c 38be 9ab0 86be e561 d83c
000000b0: 66c5 76bf ad01 d9be 6d69 97bf 92a9 d4be
000000c0: 3ad0 7fbe 4395 713e 0420 81be 74ce b23d
000000d0: 11b1 db3e 0e3d c73e 9bb5 8b3e 49d5 c63d
000000e0: 0cf1 113f a8c1 e8bd d700 5bbe 8785 80bf
000000f0: 6f68 eebd 79fd a23e ef66 2d3e 3a2f 863e
-1.4350436 -1.0762444 -0.13097805 -0.3328674 0.15581386 -0.44452718 0.19832098 -0.79555595
-0.27089584 0.1787579 -0.33881927 -0.5764868 0.47201067 0.045581147 -0.46756563 -0.22101018
-0.5261991 -0.060174294 0.45951027 -0.34502086 -0.68438065 -0.04088489 -0.51569456 -0.8816499
0.27866256 -0.17777045 -0.030975344 0.33490422 -0.023712367 0.22586912 -0.3110911 -0.28340855
-0.18062453 0.078675814 -0.03630775 -0.21998173 0.51597655 -0.16838892 -0.027407626 -0.04546108
0.17198652 -0.18016288 -0.2630661 0.026413867 -0.96394956 -0.4238409 -1.1829048 -0.41535622
-0.24981776 0.23592095 -0.25219738 0.08730784 0.42908528 0.3891377 0.2728699 0.0970865
0.57008433 -0.11365062 -0.21387039 -1.0040749 -0.11641013 0.3183401 0.16933797 0.26207906

weight f4 [64, 64, 1, 1]
00000000: 3319 dbbf 9153 6abf b9d7 ea3c 05f4 dabf
00000010: a71d 4f3e 367a adbe a8b2 8f3d 4a3b 9fbe
00000020: 1069 5c3d 24df 92bd 4e20 c13e 6414 72be
00000030: 633b 323e 98b4 a2be 8651 90be ad34 0fbc
00000040: 67b5 423d b323 e83c 80d5 a43b 938c 503d
00000050: 9f8b c1be 5c33 473e a8ad cabd dad5 eb3c
00000060: ef3f ffbe c68d 603e 2b16 fabe 16c0 3b3c
00000070: 6f00 55be e046 0ebf 3541 d53d 6a3e a5be
00000080: fa09 e23d ec97 d0be f225 25be 0fd7 483e
00000090: 851a 443e 70f6 af3e b14c dfbc 7f3a fe3d
000000a0: f907 24be 62ab 963e 45ca 313d 12fe ac3f
000000b0: 9eeb 8f3e 961d 9fbe 75cc 393e 758d afbe
000000c0: 7a71 9cbe f92d 9abe 98c8 15bf e648 9abb
000000d0: 63f7 bf3e 2245 4c3e 190c 19bf 08e0 2f3e
000000e0: 8a1e 16bf 75be 85be f044 703e 490e 13be
000000f0: 4c57 bb3e dfc2 423e 0176 3dbe 02e4 1a3c
00000100: 0dd2 1dbd cd4a 98be 21e1 2bbd b449 8e3d
00000110: a97d 423e 422b 413e 55ae 093c a9f0 473e
00000120: 5c8c 64bd 8a33 f13d 49d9 093e e73e 0a3f
00000130: a1d7 963c e7e8 1abe 7aad 813e 2380 6dbe
00000140: 7b96 0dbe 7f9b 8abd 31e0 2cbe f257 e3bd
00000150: c280 fe3d 0f62 883d b28c 003e 1eca fa3d
00000160: 0a3f 873e 8157 0d3d 2f87 963b 9fff a43e
00000170: 6b3f cf3e 2c88 f1bd 325d 8dbe a991 06be
00000180: 2a7b 3c3d 003c e43e 03b1 2d3e 31c4 843c
00000190: bac7 bfbe 2d32 833e 7392 413d 79bc 6b3e
000001a0: 61e6 853e 404c 60be 7431 84bb d0d1 673e
000001b0: f5de ccbd 4a08 2f3e b759 613e e6df 603e
000001c0: 6c8d 873e b1c2 0b3e becc 363e b7f0 32be
000001d0: b0f3 34bd 723f 253d 1201 ac3d 90aa 6abe
000001e0: 1498 7ebe bc64 213f 6945 843d 7378 d63e
000001f0: c056 eebd fa23 63be 3cea 4e3d 3a55 c33d
00000200: 0034 9dbc 7da5 5a3e 05b4 e53e ba32 123f
00000210: 3839 4ebe 1653 47be 88c6 3d3d c78b 8fbe
00000220: 3284 083d b3b4 2b3e 64e4 783d de95 57bd
00000230: 5433 393e 0f98 ce3e ae81 b83d 855e b7bd
00000240: 4478 b43e 15c7 7dbc bd72 53be f7a4 c4be
00000250: 13d3 54be 1cc4 113c 9cf5 2e3e 8763 d23d
00000260: 2d56 a33e 5880 46be ec43 ec3d 69af 973d
00000270: c124 963c cf2b f43b ba46 fc3e 864b 163e
00000280: f473 683e 4af8 fc3c 8865 4b3e 75b4 8f3d
00000290: b676 4b3e ff61 043c 8441 0ebf 1daf f1be
000002a0: 8a89 66be 1680 0dbc 45c4 28be 7ff7 f5be
000002b0: 7704 9bbe 462f 743e 24ff 693e ad2c 34bf
000002c0: dbc2 4dbe fd38 b33d e18e 94be 94b5 d3bd
000002d0: b1b4 553e 3671 49bd e995 85bd 51ea a1bd
000002e0: 89a3 0dbd 1aee 203d a0a4 fcbe 322f 9b3e
000002f0: 9ac5 70be 713e c1be 58f4 233c f5ed f7bc
00000300: 6a0d 8b3c 2918 c7bb 85f2 fa3d 23de 41be
00000310: 1835 ca3e bff3 373e 84fb 81bc add4 b8be
00000320: 5605 803e 88a5 cfbd d0b9 0dbe 3fcc 69bd
00000330: 5205 d5be e0cf bc3e 9534 44be 41f5 bf3d
00000340: d4e7 76be b8a1 cf3d 2862 c8bb 571f 8e3c
00000350: 164f 0fbd 97dc 843c 0052 943b 18d0 07be
00000360: d5b2 eebd 8116 8cbe 9b39 13bf 14dc a63e
00000370: 8358 913e 00b8 3c3d 5008 a93d f49b 67be
00000380: 48df 633e 95b8 d03e fa51 a7bd de71 16bd
00000390: cca3 c9be fb5a 643f 60df c73e 9565 973d
000003a0: 9b17 2cbe 089e 913e d742 6ebd f27d 223f
000003b0: 1905 c5bc 282d 303e 08e7 c5be 4e91 023f
000003c0: b688 cfbd fdae 64bd 3117 35be ed00 ddbd
000003d0: 9390 a43e 6d56 4c3e 9bfc d7bc e825 8abe
000003e0: 6ffe 09be 5c62 483e 216c 53be 6d9a 33be
000003f0: 2b48 d8bd 67da a63c 7626 673e e4d5 80be
-1.7117065 -0.9153376 0.028667318 -1.7105719 0.20226155 -0.33882302 0.07016498 -0.3109992
0.053811133 -0.07171467 0.3771996 -0.23640591 0.17405467 -0.31778407 -0.28187197 -0.008740586
0.04753628 0.028337335 0.005030334 0.050915312 -0.37801835 0.19453186 -0.098964036 0.028788496
-0.49853465 0.21929082 -0.48845038 0.011459371 -0.20800947 -0.55576897 0.10412828 -0.3227418
0.11037059 -0.40740907 -0.16127756 0.19613288 0.19150741 0.34367704 -0.027258249 0.12413501
-0.16018666 0.2942763 0.04340579 1.3515036 0.2810945 -0.3107726 0.181444 -0.3428761
-0.30555326 -0.301132 -0.58509207 -0.004708397 0.3749343 0.19948247 -0.59784085 0.17175305
-0.5864035 -0.2612187 0.23463798 -0.14360918 0.3659004 0.1901965 -0.18502046 0.009453775
-0.0385304 -0.29744568 -0.041962747 0.069476515 0.18993248 0.18864158 0.00840338 0.19525398
-0.05579792 0.117774084 0.13461794 0.5400223 0.018413367 -0.15127908 0.25327665 -0.23193412
-0.13826935 -0.0676794 -0.16882397 -0.111007586 0.12426902 0.06659328 0.12553671 0.12245582
0.26415282 0.03450728 0.004593752 0.32226273 0.40478072 -0.11793551 -0.27610165 -0.13141502
0.046015896 0.44577026 0.16962056 0.016206833 -0.37457067 0.2562422 0.047258805 0.23021115
0.26152328 -0.21904087 -0.0040342156 0.22638631 -0.10003463 0.17093006 0.2200688 0.2196041
0.26475084 0.13648488 0.1785154 -0.17474638 -0.04417771 0.04034371 0.08398642 -0.22916627
-0.248627 0.63044333 0.064585514 0.4188877 -0.1163764 -0.22181693 0.050516352 0.0953774
-0.019189835 0.21352191 0.44863907 0.5710865 -0.20139015 -0.19465289 0.046331912 -0.2803633
0.033329196 0.1676815 0.060764685 -0.05263316 0.18085986 0.40350387 0.090091094 -0.08953575
0.35248005 -0.015489359 -0.20649238 -0.38407108 -0.20783643 0.008896854 0.1708588 0.102728896
0.31901684 -0.19384897 0.115363926 0.07406504 0.018328073 0.0074515115 0.4927271 0.14677247
0.22700483 0.030880112 0.1986295 0.07016841 0.19869503 0.008080005 -0.5556872 -0.47203913
-0.22513404 -0.008636495 -0.16481121 -0.48040387 -0.30276844 0.23846158 0.22851235 -0.7038067
-0.20093863 0.08751104 -0.29015258 -0.10337368 0.2086971 -0.049180232 -0.06522734 -0.079060204
-0.034579787 0.03928957 -0.4934435 0.30309445 -0.23512879 -0.37742952 0.010006987 -0.030264834
0.01697417 -0.006075878 0.12253288 -0.18932395 0.39493632 0.17964076 -0.015867002 -0.3609976
0.2500407 -0.101389945 -0.13840413 -0.05707955 -0.41605622 0.36877346 -0.19160683 0.0937295
-0.24111873 0.10138267 -0.0061152168 0.017348928 -0.03498753 0.016218467 0.0045263767 -0.13262975
-0.11655203 -0.2736092 -0.57509774 0.3258978 0.28387842 0.046073914 0.082535386 -0.22618085
0.22253144 0.40765825 -0.08169933 -0.036729686 -0.3938278 0.89201325 0.3903761 0.07392422
-0.1680588 0.2844088 -0.058169212 0.6347343 -0.024050282 0.17204726 -0.38652825 0.5100297
-0.101334974 -0.055830944 -0.17684628 -0.10791192 0.3214155 0.19954844 -0.026365569 -0.26982045
-0.13475965 0.19568771 -0.20646717 -0.17539378 -0.1056064 0.020367814 0.22573265 -0.25163186

bias f4 [64]
00000000: 8c9d d63c f810 a43c 6554 adbe c28e ce3d
00000010: a9e5 aabe 92fb 42bf 6e0c 583e 07fa d03d
00000020: 1e40 59bf 46f7 503d 0d2f 90bb b9df 05be
00000030: 0047 503e b029 8abd 7e53 013f 50b6 df3c
00000040: 9cd5 aabe 5956 73be 63e9 f0bd c4ae 263e
00000050: 22de ae3e 2137 19be 8a51 95bd f9d6 bebe
00000060: 0eab 2abf ea13 813e 3a41 4a3e cd41 7e3e
00000070: bd53 f1be 9c50 023e bf3f a33d a52d b1be
00000080: c6d7 0c3c 7326 e53d 1da8 ca3e d3f3 493e
00000090: e361 53bf 6b06 5dbe 8c88 e53d 0664 4bbe
000000a0: 9761 0a3f 5904 dd3d 859b 20bf dc03 473e
000000b0: 5a81 a63d be73 1dbe ae4b 423d b13a e83d
000000c0: c196 7fbe 5148 3dbe c498 423e af0d 573c
000000d0: 9677 253d 2c31 ff3e 2523 e73d 1fb3 233f
000000e0: 81b8 173e 391b e53c 7c3f 323e d946 b9bc
000000f0: fd34 0ebf 8261 c53d 31a8 be39 e894 493c
0.026198171 0.020027623 -0.3385345 0.10085823 -0.33378342 -0.76165116 0.21098492 0.10203939
-0.8486346 0.05101707 -0.00440014 -0.13073625 0.20339584 -0.067462325 0.50518024 0.027308613
-0.33366096 -0.23763408 -0.11763265 0.16277605 0.3415385 -0.14962436 -0.07290943 -0.37273386
-0.6666726 0.25210506 0.19751444 0.24829789 -0.471342 0.12726063 0.07971143 -0.34605137
0.008596366 0.11188974 0.39581385 0.19721918 -0.8257124 -0.2158448 0.11207685 -0.19862375
0.5405516 0.10791845 -0.62737304 0.19435066 0.081301406 -0.15376183 0.047435455 0.113393195
-0.24959852 -0.18484618 0.19003588 0.013125821 0.04039725 0.49842203 0.11286 0.6394519
0.14816476 0.027967082 0.1740703 -0.02261679 -0.55549604 0.09637739 0.00036364936 0.012303568
