training_testing_code/checkpoint/SPLUT_M_0.001_4/model_G_B_i222000.pth (torch, 191621 bytes, 38 tensors)

weight f4 [64, 1, 2, 2]
0	0xbf3aea2d	-0.73013574
1	0xbfdbea2d	-1.718084
2	0xbff21d60	-1.8915215
3	0xbf553730	-0.83287334
4	0x3ebcd915	0.3688437
5	0xbf58abd5	-0.84637195
6	0x3e4505fe	0.19240567
7	0xbd8d7cf5	-0.06908599
8	0x3f0f5bbc	0.5599935
9	0x3cbbc790	0.022922307
10	0xbfc37469	-1.52699
11	0x3df1aa15	0.11800019
12	0xbf7492de	-0.955366
13	0xbeb71ec5	-0.35765663
14	0xbddf1643	-0.10892918
15	0xbec874c8	-0.39151597
16	0x3e6351cb	0.2219917
17	0xbf00d563	-0.503256
18	0xbf7c581e	-0.98571956
19	0x3e9c7fd4	0.30566275
20	0xbe7c9bad	-0.2466876
21	0xbdcb6e6e	-0.09933172
22	0xbe77b132	-0.24188688
23	0xbf43b536	-0.7644838
24	0x3e0c6ace	0.13712618
25	0x3ee21ba8	0.44161725
26	0xbe9a1cbb	-0.30100045
27	0xbe0e79eb	-0.13913696
28	0x3f169f8c	0.588372
29	0xbf078619	-0.5293899
30	0x3f08f460	0.53497887
31	0x3f047492	0.5174037
32	0x3f292e04	0.6608584
33	0xbddc06f9	-0.107435174
34	0x3ca4ccd0	0.020117193
35	0x3cd5de81	0.026107075
36	0xbe8991bf	-0.26869008
37	0xbeecaafd	-0.46224204
38	0xbdd5e096	-0.10443227
39	0xbf2d128a	-0.67606413
40	0x3f908c0e	1.1292741
41	0x3f790b5f	0.97282976
42	0xbd1d9300	-0.03847027
43	0x3f6b120b	0.91824406
44	0x3eacc1cd	0.33741608
45	0x3edb48ba	0.42828923
46	0xbf5909fe	-0.8478087
47	0xbe0374ae	-0.12837479
48	0x3f2580a5	0.6464942
49	0x3fcab7fa	1.5837395
50	0x3e627988	0.22116673
51	0xbef43717	-0.4769828
52	0xbe9cb9ac	-0.30610406
53	0xbf41bb14	-0.75676084
54	0xbe53694d	-0.20645638
55	0xbd480645	-0.048834104
56	0xbf5d9a14	-0.8656323
57	0xbe38df26	-0.18053874
58	0xbf99c586	-1.2013404
59	0xbd9bf702	-0.076154724
60	0xbf3c8778	-0.7364421
61	0xbf6a5434	-0.91534734
62	0x3fd7c45d	1.68568
63	0xbe22a8af	-0.1588466
64	0x3e0774b3	0.13228111
65	0xbe5e07e8	-0.21682703
66	0xbf8817cb	-1.0632261
67	0xbed9a412	-0.42507988
68	0xbf517595	-0.8182004
69	0xbf17fbbc	-0.5936849
70	0xbe257eb4	-0.16161615
71	0x3f5d356b	0.86409634
72	0x3dcc6d04	0.099817306
73	0xbc813b20	-0.015775263
74	0x3f36d12c	0.7141292
75	0x3cf323a8	0.029680088
76	0xbfe14f34	-1.7602296
77	0xbe812e8a	-0.2523082
78	0x3ea80dad	0.32822934
79	0x39b5e016	0.00034689967
80	0xbf29abef	-0.66277975
81	0xbeebbe77	-0.4604375
82	0x3f02792f	0.5096616
83	0xbf1fe462	-0.6245786
84	0x3f98f97a	1.1951134
85	0xbf7b3d63	-0.98140544
86	0x3e7e1e7a	0.24816313
87	0x3eb9072d	0.36138287
88	0xbe94de81	-0.29076007
89	0xbee47d16	-0.44626683
90	0xbf485675	-0.7825692
91	0xbf928656	-1.1447246
92	0xbe9c70da	-0.3055485
93	0xbec9e314	-0.3943106
94	0x3f229323	0.6350576
95	0x3efa7814	0.48919737
96	0xbf1c0103	-0.60939044
97	0x3f22fe15	0.6366895
98	0x3e85835a	0.26076776
99	0x3f81e73c	1.0148692
100	0x3f33e4ae	0.7027081
101	0xbd92ae6a	-0.07162173
102	0x3f0536d4	0.52036786
103	0xbf85301e	-1.0405309
104	0x3e44ec31	0.19230725
105	0x3e7771c7	0.24164496
106	0xbf2b9e98	-0.6703887
107	0xbf8fdfd1	-1.1240178
108	0xbf8a3133	-1.0796264
109	0x3e9aa758	0.30205798
110	0x3f08c201	0.53421026
111	0x3e4a79f7	0.19773088
112	0x3e3563e8	0.17713892
113	0xbee10e34	-0.4395615
114	0xbf803c21	-1.001835
115	0x3f1cffd1	0.61327845
116	0x3ebee2ad	0.37282315
117	0x3f19fd22	0.60151875
118	0x3e8d62b7	0.27614376
119	0xbfaab9c2	-1.3337939
120	0xbf317274	-0.69315267
121	0x3f621890	0.8831873
122	0x3eb15dd0	0.34641886
123	0xbf950455	-1.1641947
124	0xbf1ec49b	-0.62018746
125	0xbf5d2cc1	-0.86396414
126	0xbddf5da4	-0.109065324
127	0xbe03f191	-0.12885119
128	0x3f8a7469	1.0816776
129	0x3ea034cd	0.31290284
130	0x3f8fc943	1.1233295
131	0x3dcbb4ff	0.09946632
132	0x3fd0efc6	1.6323173
133	0x3ddd62c0	0.10809851
134	0xbefe65b7	-0.49686977
135	0xbf4bca1c	-0.7960527
136	0x3f2b68cd	0.6695679
137	0x3f7e8735	0.9942506
138	0xbec40cf9	-0.38291147
139	0x3f4e1937	0.80507225
140	0xbe9f6c89	-0.31137493
141	0x3e00507f	0.12530707
142	0xbf3546b7	-0.7081103
143	0xbf7a17e8	-0.9769273
144	0x3f1ad5fc	0.60482764
145	0x3f5f577b	0.8724286
146	0xbf384168	-0.719748
147	0xbee067a0	-0.4382906
148	0xbeb124df	-0.34598443
149	0x3f022ab9	0.5084644
150	0xbf8768b9	-1.0578834
151	0x3f280e21	0.6564656
152	0x3ec92f7c	0.3929404
153	0xbe229eac	-0.15880841
154	0x3ed77ce1	0.42087463
155	0x3dc7631a	0.09735699
156	0xbf45d6ee	-0.7728108
157	0xbeaaf282	-0.33388144
158	0xbff6a610	-1.9269428
159	0xbfd8d167	-1.6938905
160	0xbf0b059a	-0.5430542
161	0xbd0f9f03	-0.035063755
162	0xbfe4f3b5	-1.7886873
163	0xbecb71c3	-0.3973523
164	0xbed1ce51	-0.4097772
165	0xbf1e4279	-0.6182018
166	0x3f01040a	0.5039679
167	0xbfae8634	-1.3634706
168	0xbf9fac57	-1.2474469
169	0xbf21b010	-0.63159275
170	0xbe0235df	-0.12715863
171	0xbd9c6e6f	-0.07638251
172	0xbfc59f16	-1.5439174
173	0xbebd3893	-0.36957225
174	0x3eb9958e	0.36246914
175	0xbeb7ebfa	-0.35922223
176	0x3e5b5376	0.21418557
177	0xbf228aac	-0.63492846
178	0x3f198ad1	0.5997744
179	0x3e4b5dec	0.19860047
180	0x3f11f8b6	0.5702013
181	0x3e5ac603	0.21364598
182	0x3e1bc194	0.15210563
183	0xbe6c3a35	-0.23069079
184	0xbe9f485a	-0.31109887
185	0x3f6e9b45	0.9320567
186	0xbf8f67fe	-1.1203611
187	0x3dceeff4	0.10104361
188	0xbf8a781f	-1.0817908
189	0xbf3b44c6	-0.73151815
190	0xbeb185a3	-0.3467227
191	0x3e929728	0.28630948
192	0xbed87ac8	-0.42281175
193	0x3ec83be5	0.39108196
194	0x3ee189fa	0.4405058
195	0xbf0f010d	-0.5586098
196	0xbf198e24	-0.59982514
197	0x3f3c772e	0.73619354
198	0x3f09020b	0.5351874
199	0x3d3cbbbe	0.046077482
200	0xbf48d5ed	-0.78451425
201	0x3f4024e8	0.75056314
202	0x3f1e92a7	0.61942524
203	0x3e20af42	0.15691856
204	0x3e00b184	0.12567717
205	0x3f7d2f10	0.98899937
206	0x3eb2a708	0.3489306
207	0xbf004211	-0.5010081
208	0x3eb2a247	0.34889433
209	0xbf225b50	-0.6342058
210	0xbe664319	-0.22486533
211	0x3f019201	0.5061341
212	0x3f542100	0.82862854
213	0xbf5d7739	-0.86510044
214	0xbf061bc7	-0.52386135
215	0xbf33fdee	-0.7030934
216	0xbe095b26	-0.13413677
217	0x3eaccfff	0.33752438
218	0x3f2c8a34	0.6739838
219	0x3cb06e55	0.021536985
220	0xbf4c0f68	-0.7971101
221	0xbeb5284c	-0.35382307
222	0xbddaa476	-0.106759
223	0x3f3c6011	0.73584086
224	0xbf473448	-0.7781415
225	0x3f81ad81	1.0131074
226	0xbf40e3e7	-0.7534775
227	0xbf0c4411	-0.5479136
228	0x3da9a42d	0.08283267
229	0x3ef81b64	0.48458397
230	0xbcb2e1f4	-0.021836258
231	0xbe8e05db	-0.27738842
232	0x3d0071cd	0.03135853
233	0xbdcd2915	-0.100176014
234	0x3f6807b4	0.90636754
235	0x3b972cb5	0.004613484
236	0x3fa59507	1.2936105
237	0x3ec284e6	0.37992018
238	0xbef1da9b	-0.47237095
239	0x3e6e82cb	0.23292081
240	0x3fd44718	1.6584196
241	0x3f891103	1.0708317
242	0x3e45ca97	0.19315563
243	0xbf5be569	-0.8589693
244	0x3f8a2157	1.0791425
245	0xbd05128b	-0.032488387
246	0xbdff31f2	-0.12460698
247	0x3f2fb30d	0.68632585
248	0xbf31f51a	-0.6951462
249	0x3aa4982c	0.0012557558
250	0x3ee326dc	0.44365585
251	0xbf3f661f	-0.747652
252	0x3f67036c	0.90239596
253	0x3ed830f0	0.42224836
254	0xbf61a78c	-0.8814628
255	0x3edd8e62	0.43272692

bias f4 [64]
0	0x3eeb3e35	0.45945898
1	0xbe2a7a4b	-0.16648214
2	0xbe8df281	-0.27724078
3	0xbecb5d43	-0.3971959
4	0x3ed6c87b	0.4194983
5	0xbee0e269	-0.43922737
6	0xbe334c4a	-0.1750957
7	0xbd8a1cd1	-0.067437775
8	0xbd4f827a	-0.05066154
9	0xbf049fc0	-0.5180626
10	0xbdc33b03	-0.0953274
11	0xbd9f4c7c	-0.0777826
12	0xbdc929c6	-0.09822421
13	0xbed7e615	-0.42167726
14	0xbeabce56	-0.3355586
15	0x3c75737c	0.014981147
16	0xbea74dcb	-0.3267654
17	0x3e8f4a57	0.27986404
18	0xbd2729ae	-0.040811233
19	0x3e40e4f7	0.18837343
20	0xbef2eb49	-0.47445133
21	0xbc37b158	-0.011211716
22	0xbf08849a	-0.53327334
23	0x3e3e32a8	0.18574011
24	0x3d3d70d0	0.046250165
25	0x3e6d6629	0.23183502
26	0xbe9c747c	-0.3055762
27	0x3e9489a9	0.29011276
28	0xbe2a0639	-0.16603936
29	0xbe1b5574	-0.15169317
30	0x3f02766a	0.50961936
31	0xbf077c6c	-0.5292423
32	0xbd81a30f	-0.06329929
33	0xbcb4704f	-0.02202621
34	0xbe155830	-0.14584422
35	0xbecf6edd	-0.4051427
36	0xbdf5881c	-0.119888514
37	0x3dd4ff61	0.10400272
38	0xbe0b7b95	-0.13621362
39	0xbf6088e2	-0.87708867
40	0xbf063e7c	-0.52439094
41	0x3efc9208	0.49330163
42	0xbd9f068d	-0.07764921
43	0x3e57925b	0.21051924
44	0x3e0e1d5d	0.13878389
45	0xbdb0b396	-0.08628003
46	0x3e9f9c03	0.31173715
47	0xbec57bd4	-0.38571036
48	0x3e09970c	0.13436526
49	0x3d946b1c	0.07246992
50	0x3e3ad671	0.18245865
51	0xbb438d23	-0.0029838763
52	0xbdc4fdde	-0.09618734
53	0xbebe96d8	-0.3722446
54	0xbd78910d	-0.060685206
55	0x3eac52ba	0.33656865
56	0x3e9df012	0.30847222
57	0xbe6b7d9e	-0.22997138
58	0xbd8ce0a6	-0.06878786
59	0x3cf65ffb	0.030075064
60	0xbd03ee20	-0.032209516
61	0xbd412cf2	-0.047162004
62	0xbefb65fb	-0.49101242
63	0xbb93e288	-0.0045130886

weight f4 [64, 64, 1, 1]
0	0x3c44bab3	0.012007403
1	0xbea26732	-0.31719357
2	0x3d250b24	0.040293828
3	0x3e203b30	0.15647578
4	0x3e0a5764	0.135099
5	0x3e96c6c2	0.29448515
6	0xbe9917c1	-0.29900935
7	0x3e900c95	0.281346
8	0x3e64e068	0.22351229
9	0x3ded7b85	0.11595825
10	0xbca9bdc5	-0.020720372
11	0x3bb774f1	0.0055986573
12	0x3c963def	0.01834008
13	0xbe6045ac	-0.21901578
14	0x3e79c9da	0.24393407
15	0x3e044a67	0.12919007
16	0xbe39e824	-0.18154961
17	0xbf4001ca	-0.7500273
18	0xbdcc2cca	-0.0996948
19	0xbe97806c	-0.29590166
20	0x3e7cdcd4	0.24693614
21	0x3e9f6723	0.31133375
22	0x3e53e075	0.20691092
23	0x3c748c4d	0.014926028
24	0x3da5bce2	0.08092667
25	0x3eb88750	0.36040735
26	0x3e356a69	0.17716374
27	0xbf3d5d60	-0.73970604
28	0x3ca7f855	0.020504156
29	0x3ef82a26	0.48469657
30	0xbe6ff6aa	-0.23433939
31	0x3ebc7467	0.36807558
32	0x3ee6b153	0.45057163
33	0x3eb4ec3d	0.35336486
34	0x3e873b36	0.26412362
35	0x3e97dcd0	0.29660654
36	0x3d43de54	0.04781945
37	0xbebb97da	-0.3663929
38	0x3e6af23f	0.22943972
39	0x3f0e1b76	0.5551065
40	0x3ea9a4fb	0.33133683
41	0xbea26042	-0.31714064
42	0xbde3dc69	-0.11126024
43	0xbf0e0e64	-0.5549071
44	0xbd647428	-0.055774838
45	0xbe8f1e55	-0.2795283
46	0xbf0303a1	-0.5117741
47	0x3e62a56c	0.22133416
48	0xbe9aa127	-0.30201074
49	0xbf27e633	-0.6558563
50	0xbe86dc67	-0.2634003
51	0xbd5ed6b0	-0.05440396
52	0x3ef6be6c	0.48192155
53	0x3e50a9e7	0.20377313
54	0x3e011e94	0.12609321
55	0xbf10b97b	-0.5653302
56	0xbeb192e0	-0.3468237
57	0x3e666c2e	0.22502205
58	0x3d2733f8	0.040821046
59	0x3f015528	0.50520563
60	0x3dd0dc2d	0.10198245
61	0x3ee65a89	0.44990948
62	0xbce0dcfb	-0.027449122
63	0x3ee7345c	0.45157135
64	0x3defd5df	0.117107145
65	0x3fbcbeb4	1.4745698
66	0x3ec64e7c	0.38731754
67	0xbe8327b1	-0.2561622
68	0x3df467b6	0.11933844
69	0x3e1c40c2	0.15259078
70	0xbf0452f0	-0.5168905
71	0x3e3be934	0.18350679
72	0x3e02506f	0.12725995
73	0x3da3bcf2	0.07995023
74	0x3d54be75	0.051939446
75	0xbb94e7e4	-0.004544245
76	0xbef23ba6	-0.47311133
77	0x3e172964	0.14761883
78	0x3e4248f9	0.1897315
79	0x3e99d4ed	0.30045262
80	0x3def5f42	0.11688091
81	0x3ed85a32	0.42256314
82	0xbe31759a	-0.17330018
83	0xbe0c1367	-0.13679276
84	0x3f17424b	0.5908553
85	0x3e600d6a	0.21880117
86	0xbd17fd74	-0.037106946
87	0x3d7e7bc1	0.06212974
88	0xbf02fe95	-0.5116971
89	0x3db62c8a	0.08895214
90	0x3d33f188	0.043931514
91	0xbf687192	-0.90798295
92	0x3f041dc9	0.5160795
93	0xbd59885c	-0.053108558
94	0xbd74a960	-0.05973184
95	0x3e7d5907	0.24740992
96	0x3e1385d9	0.14406528
97	0x3efa816f	0.48926875
98	0xbe98692e	-0.29767746
99	0x3d1105fe	0.035406105
100	0xbe39715a	-0.18109646
101	0xbf1d2d34	-0.613971
102	0x3e1695c4	0.14705569
103	0xbe971db4	-0.2951485
104	0xbe660ff2	-0.2246702
105	0x3eb09619	0.34489515
106	0x3cf2ee6f	0.02965471
107	0xbd280d89	-0.041028533
108	0x3edaea09	0.4275668
109	0x3ddd0856	0.107926056
110	0xbebcc795	-0.3687102
111	0xbca03a3e	-0.019559022
112	0xbee71f5a	-0.45141107
113	0xbf423f61	-0.7587796
114	0xbf514f5e	-0.8176173
115	0xbdf6eeb2	-0.12057246
116	0x3f37f32e	0.7185544
117	0x3f16e5f6	0.5894464
118	0xbd285c9d	-0.041103948
119	0x3eb93f5b	0.3618115
120	0x3de21508	0.11039168
121	0xbe2aadd6	-0.16667876
122	0xbe4f299f	-0.20230721
123	0xbde5ca97	-0.112202816
124	0xbe994317	-0.29933998
125	0xbe69ae5b	-0.22820418
126	0x3e084215	0.13306458
127	0xbdf71f08	-0.120664656
128	0x3dff47fd	0.124649025
129	0x3d92f3e8	0.07175428
130	0xbdef5ab8	-0.11687225
131	0x3e805162	0.2506209
132	0xbec4a247	-0.38405058
133	0x3ea987fb	0.33111557
134	0xbe25a500	-0.16176224
135	0x3cf7ad75	0.030234078
136	0xbde310f7	-0.1108722
137	0xbe29a587	-0.1656705
138	0x3e659adc	0.22422355
139	0xbf3cf85f	-0.73816484
140	0xbe87d877	-0.26532337
141	0xbd767d49	-0.060178075
142	0xbe4ca6f1	-0.19985558
143	0x3ed27184	0.4110223
144	0x3dd8a9c9	0.10579259
145	0x3d9e2fe0	0.07723975
146	0x3c8020ca	0.015640635
147	0xbd97ed27	-0.0741828
148	0xbe170b98	-0.14750516
149	0x3d24d65d	0.040243495
150	0xbd276f05	-0.04087736
151	0x3e66b169	0.22528614
152	0xbcce6d62	-0.025198642
153	0x3e1bd2b6	0.15217099
154	0x3db87d97	0.09008329
155	0xbd2609f4	-0.040536836
156	0xbdde6b87	-0.10860353
157	0xbe1962cc	-0.14979094
158	0xbca1f48c	-0.01976993
159	0x3e19bf9f	0.15014504
160	0x3ea9db57	0.33175156
161	0xbf0d1080	-0.551033
162	0x3c1df886	0.009641772
163	0x3e6df6fd	0.2323875
164	0xbdce46ad	-0.10072074
165	0xbe423d2b	-0.18968646
166	0x3ee7e5b1	0.45292428
167	0x3e7100ad	0.23535414
168	0xbb2bf748	-0.002623992
169	0x3e003e57	0.12523781
170	0x3e16679e	0.14687964
171	0xbeab0322	-0.33400828
172	0x3e9cffd3	0.30663928
173	0xbd2e423b	-0.04254363
174	0x3e5e7b3f	0.21726702
175	0xbe95e5c2	-0.29276854
176	0x3c5d4ecc	0.013507556
177	0x3eaa6cf3	0.33286247
178	0x3e436e99	0.19085158
179	0x3dd10a87	0.10207086
180	0x3ac3a35f	0.0014926008
181	0x3e0b045a	0.13575879
182	0x3ed2207d	0.41040412
183	0xbc85e198	-0.016342923
184	0x3d65d2a1	0.056109075
185	0xbd03b54b	-0.032155316
186	0x3df46ca5	0.11934785
187	0xbdb614c6	-0.08890681
188	0x3e55f4c9	0.2089416
189	0xbe3e2d2a	-0.18571916
190	0xbd67f0cc	-0.056626126
191	0xbe2ac5f2	-0.16677073
192	0x3d3288d0	0.043587506
193	0xbd67f970	-0.056634367
194	0x3f9a3821	1.2048379
195	0x3e6ba899	0.23013534
196	0xbd35b5a5	-0.044362683
197	0x3e8104ad	0.2519888
198	0x3e379214	0.17926818
199	0x3d78f6fd	0.06078242
200	0x3e4ebb87	0.20188724
201	0x3e0d5db0	0.1380527
202	0xbdfd2ffc	-0.12362668
203	0x3f1dafd6	0.6159643
204	0x3d2d3b86	0.042293094
205	0x3deae113	0.11468711
206	0x3f1b02ea	0.6055132
207	0x3ead7c54	0.33883917
208	0x3eec1ce7	0.461158
209	0x3d53ffef	0.05175775
210	0xbdee1236	-0.11624567
211	0x3e56124a	0.20905414
212	0xbdbf7570	-0.09348571
213	0x3e0d1de9	0.13780941
214	0x3eb2bdc3	0.34910402
215	0xbea7c03d	-0.32763854
216	0x3e794e7d	0.24346347
217	0x3d1927d0	0.037391484
218	0x3e3deee0	0.18548155
219	0xbe860585	-0.26176086
220	0xbd11a840	-0.035560846
221	0x3f21a157	0.6313681
222	0xbf1bc8c2	-0.6085321
223	0x3e74c4ad	0.23903151
224	0x3d467ca3	0.048458707
225	0x3ee4dfce	0.44702
226	0x3dae132c	0.084997505
227	0x3e9b8e48	0.3038199
228	0x3eeec05d	0.46631137
229	0x3e39771a	0.1811184
230	0xbeb6d668	-0.35710454
231	0x3ecf8172	0.40528446
232	0x3d3816a9	0.044943485
233	0xbda66f45	-0.08126692
234	0x3f01d515	0.5071576
235	0x3e113b9c	0.14182895
236	0xbe9ce354	-0.30642188
237	0xbec61c65	-0.38693538
238	0xbe8bb38a	-0.27285415
239	0x3eec533f	0.46157262
240	0xbea03c11	-0.31295827
241	0xbe9121b0	-0.28346014
242	0xbe38d443	-0.18049721
243	0xbee9f200	-0.45692444
244	0x3e851029	0.25988892
245	0x3eb501cd	0.35352936
246	0xbd5ff301	-0.054675106
247	0x3d8e7d25	0.06957463
248	0xbea49a28	-0.32148862
249	0x3db8d86b	0.090256535
250	0xbde6d16c	-0.11270413
251	0xbda90856	-0.08253543
252	0x3db7c5e3	0.08973291
253	0xbdd5183d	-0.10405014
254	0x3f25d165	0.64772636
255	0x3e99549e	0.2994737

bias f4 [64]
0	0x3bbb8f8f	0.0057239006
1	0x3d4005cd	0.046880532
2	0xbc5de6e0	-0.013543814
3	0xbea0aa8b	-0.31380114
4	0x3e13f910	0.14450479
5	0xbda94e85	-0.082669295
6	0x3e67b89e	0.2262902
7	0x3d8fc484	0.07019904
8	0xbe028fd8	-0.12750185
9	0x3d3eb47a	0.046558835
10	0x3e184b8a	0.14872566
11	0x3eab5724	0.3346492
12	0xbe6356bc	-0.22201055
13	0xbe1658f6	-0.14682373
14	0xbdcf9b8e	-0.101370916
15	0xbe239bc3	-0.15977387
16	0x3d53eccc	0.0517395
17	0xbdf1b028	-0.11801177
18	0xbd70bfbd	-0.058776606
19	0x3d37c032	0.044861026
20	0x3ebbad04	0.36655438
21	0xbdc97d89	-0.09838397
22	0xbd330f5c	-0.04371582
23	0x3e11c47e	0.14235112
24	0xbdad7054	-0.084686905
25	0x3dcfad89	0.10140521
26	0xbb0c54b3	-0.002141279
27	0x3e2232ec	0.15839738
28	0xbe061acc	-0.1309616
29	0x3e136ffe	0.1439819
30	0xbd5a9a76	-0.05336996
31	0xbe9e0e56	-0.30870312
32	0xbdc7217f	-0.09723186
33	0xbd309b31	-0.043116752
34	0xbd6c7f86	-0.057738803
35	0x3e945b26	0.2897579
36	0xbdc4223a	-0.09576841
37	0xbc9d49d4	-0.019200243
38	0xbd9178cb	-0.071031176
39	0xbe365182	-0.1780453
40	0xbea58fb3	-0.32336196
41	0x3e079bb0	0.13242984
42	0xbd83df76	-0.06439106
43	0xbe041c23	-0.12901358
44	0x3e047e3a	0.12938777
45	0x3e9084e0	0.28226376
46	0x3e96e05a	0.29468042
47	0x3df42740	0.11921549
48	0x3dd8c6da	0.10584803
49	0xbd06a67a	-0.03287361
50	0x3ef53cce	0.47897953
51	0x3e5f56c5	0.21810444
52	0xbd9695eb	-0.07352813
53	0xbd8b680e	-0.06806956
54	0xbd414597	-0.047185507
55	0xbea7b7dc	-0.3275746
56	0x3ec6a090	0.38794374
57	0x3e41e342	0.18934348
58	0xbd54f893	-0.05199487
59	0x3de7d4cf	0.11319887
60	0x3c7b6f33	0.015346336
61	0xbe0e9612	-0.13924435
62	0x3e410f60	0.18853521
63	0x3e1e86d5	0.15481122

weight f4 [8, 64, 1, 1]
0	0xbe78f16d	-0.24310847
1	0x3d13458b	0.035954993
2	0x3ce5bfe0	0.028045595
3	0x3eb1edf9	0.3475187
4	0xbd55cff4	-0.052200273
5	0x3d7ef3ea	0.062244333
6	0xbde9e7a1	-0.11421133
7	0xbd2934f7	-0.041310277
8	0x3e006e10	0.12541986
9	0xbdbd3770	-0.092390895
10	0x3e6c22a9	0.23060097
11	0x3c9b500e	0.018959071
12	0x3e0e672f	0.13906549
13	0xbd19f1c2	-0.037584074
14	0xbe8c9b26	-0.2746212
15	0x3e87e48e	0.2654156
16	0xbec1f0db	-0.3787907
17	0xbe35dafe	-0.1775932
18	0x3ecf03aa	0.40432483
19	0xbcf5811e	-0.029968794
20	0x3e65c7a5	0.2243944
21	0xbe844dbd	-0.2584056
22	0x3f10105d	0.5627497
23	0xbd4e9aed	-0.050440717
24	0xbe18cef5	-0.14922698
25	0x3e760414	0.24024993
26	0x3dc4f153	0.096163414
27	0xbd8e9884	-0.06962684
28	0xbe2900af	-0.16504167
29	0xbd80b662	-0.06284787
30	0x3e00ddf2	0.12584665
31	0xbe3add5a	-0.18248501
32	0xbe6d3099	-0.2316307
33	0x3daf35af	0.08555161
34	0x3e5f4452	0.21803406
35	0x3e2c3211	0.16815974
36	0xbe9aee1d	-0.3025979
37	0xbee8ce2f	-0.45469806
38	0xbe6ce61d	-0.23134656
39	0xbe1501dd	-0.14551492
40	0xbe8c836f	-0.27444026
41	0x3d441fdd	0.04788195
42	0xbe08f461	-0.13374473
43	0xbe3f5447	-0.18684493
44	0xbe155d60	-0.14586401
45	0xbdb12ef9	-0.086515374
46	0x3e250242	0.16114143
47	0xbe54077d	-0.20705982
48	0x3d09ce04	0.033643737
49	0xbcfb5f8e	-0.030685212
50	0x3e9fb341	0.31191447
51	0xbe1e6b45	-0.15470608
52	0xbe92604b	-0.2858909
53	0x3c108656	0.008821091
54	0x3db47427	0.08811217
55	0x3ec2555c	0.3795575
56	0x3ce80777	0.028323872
57	0xbd000fd5	-0.0312651
58	0xbe47bb1f	-0.19504975
59	0xbbcaff8e	-0.0061950153
60	0xbdb09847	-0.086227946
61	0x3e8d57ca	0.2760604
62	0x3d4cc661	0.049993876
63	0x3ec96d12	0.39341027
64	0x3d70a97b	0.05875538
65	0xbce2d5b6	-0.027689796
66	0x3d681514	0.056660727
67	0xbd749b1f	-0.059718248
68	0x3daa1a6e	0.08305822
69	0x3ebababd	0.36470595
70	0xbe4ed866	-0.20199737
71	0xbeceaf26	-0.40368003
72	0xbe2eddc3	-0.17076783
73	0xbdf1351f	-0.1177771
74	0x3e0a1e2e	0.13488075
75	0xbe8ca07a	-0.27466184
76	0x3dfef283	0.12448599
77	0x3e94b3e9	0.2904351
78	0x3e791011	0.24322535
79	0x3efaaef7	0.48961613
80	0x3e23475b	0.15945189
81	0x3e764f01	0.24053575
82	0x3dfaf209	0.12253196
83	0x3e9d333b	0.30703148
84	0xbf132b5d	-0.5748804
85	0x3ec31962	0.38105303
86	0x3d0d8089	0.03454641
87	0xbe9fa5a5	-0.31181064
88	0x3e7aca94	0.2449134
89	0xbef63858	-0.48089862
90	0xbe209260	-0.15680838
91	0xbf47d685	-0.78061706
92	0x3ee8d415	0.45474306
93	0xbea52b7e	-0.32259744
94	0x3e895f61	0.2683058
95	0xbe8a1885	-0.26971832
96	0x3eb0a0b2	0.344976
97	0x3e79a4b9	0.24379243
98	0x3e440ba4	0.19145066
99	0xbeae3895	-0.34027544
100	0xbdb37bf1	-0.08763874
101	0x3e30aff1	0.17254616
102	0xbc13e7d2	-0.009027438
103	0x3ed09fb3	0.4074684
104	0x3db49235	0.08816949
105	0xbdf0c588	-0.11756426
106	0x3dbb8c95	0.09157673
107	0x3e10f9b1	0.1415775
108	0xbe5549cf	-0.20828937
109	0xbe1f156a	-0.15535513
110	0xbea2f5e8	-0.31828237
111	0xbd023d4c	-0.03179674
112	0x3e9d1c2a	0.3068555
113	0x3c3222a0	0.010872513
114	0xbcc2f7b7	-0.02379976
115	0x3cd8a4d2	0.02644578
116	0x3d1e01c0	0.038575888
117	0x3e99cd33	0.30039367
118	0x3e01e716	0.12685809
119	0x3e262d89	0.16228308
120	0xbe9ae006	-0.3024904
121	0xbe17d065	-0.1482559
122	0x3e6c4399	0.23072661
123	0xbdc8b77f	-0.09800624
124	0xbc27c0be	-0.010238824
125	0x3c92dc66	0.01792736
126	0xbdc087a8	-0.094008744
127	0x3daed6b3	0.085370444
128	0x3f2a01b8	0.6640887
129	0xbe41ff63	-0.18945079
130	0x3edbcae1	0.42928222
131	0x3f06334f	0.5242204
132	0xbc11a621	-0.008889706
133	0x3f3ae185	0.73000365
134	0x3f910af3	1.1331466
135	0xbd1d5716	-0.03841313
136	0xbe340e57	-0.17583595
137	0x3dcd5cb3	0.100274466
138	0x3c5034ee	0.012707932
139	0xbe050c1f	-0.12992905
140	0x3e9e7fc2	0.30956846
141	0x3ecbd265	0.39808956
142	0x3eacaf04	0.33727276
143	0xbdb334f6	-0.08750336
144	0x3e8fdd7d	0.2809867
145	0x3f0d2234	0.55130315
146	0x3e94ac8a	0.29037887
147	0x3ee8640e	0.45388836
148	0x3f9c0c41	1.219124
149	0x3e313792	0.17306355
150	0xbe8def32	-0.27721554
151	0xbeec1507	-0.46109793
152	0x3e1720d1	0.14758612
153	0xbf60cbea	-0.8781115
154	0x3ead0595	0.3379332
155	0xbec92644	-0.39287007
156	0xbb7216d1	-0.003693987
157	0xbeba306e	-0.36365074
158	0xbd943b17	-0.07237833
159	0xbf5f181f	-0.8714618
160	0xbe444452	-0.19166687
161	0x3d213433	0.03935642
162	0x3dc1eb49	0.09468705
163	0xbec76aaa	-0.38948566
164	0x3e56f975	0.20993598
165	0xbe2000a5	-0.15625246
166	0x3ebe1f06	0.37133044
167	0x3ea41504	0.32047284
168	0x3d648359	0.055789325
169	0x3c8828e7	0.016621066
170	0x3e0a3913	0.13498335
171	0xbd9d2e7b	-0.07674881
172	0x3db7fb09	0.08983428
173	0xbe8e6af1	-0.27815965
174	0xbea8c98a	-0.32966262
175	0xbf430623	-0.7618124
176	0xbf284876	-0.65735567
177	0x3cc75df7	0.024336798
178	0xbf9cbe06	-1.224549
179	0xbf1cf6e8	-0.6131425
180	0x3f29ff10	0.6640482
181	0x3ddf5e78	0.1090669
182	0x3ed2099b	0.41022953
183	0xbef94986	-0.48688906
184	0xbec5e01a	-0.38647538
185	0xbe8efaa4	-0.279256
186	0x3e421565	0.18953474
187	0x3eca666f	0.39531276
188	0x3e01f328	0.12690413
189	0x3e35f564	0.1776939
190	0x3d8471a8	0.06466991
191	0xbc2e61a7	-0.010643399
192	0x3e9af916	0.30268162
193	0xbe55c364	-0.20875317
194	0xbe827637	-0.25480816
195	0x3ec13f46	0.37743586
196	0xbe8b40c3	-0.27197847
197	0x3e5acc51	0.21367003
198	0xbdfc54a7	-0.12320834
199	0xbe386cf8	-0.18010318
200	0x3f445f8a	0.7670828
201	0x3d5a1762	0.053244956
202	0x3f10efe9	0.56616074
203	0xbeaca41f	-0.33718964
204	0x3f489aa9	0.7836099
205	0x3e144f19	0.14483298
206	0x3dca936e	0.09891401
207	0x3f4230eb	0.7585589
208	0x3d4a7d1b	0.049435716
209	0x3dd03336	0.10166018
210	0xbdd595d0	-0.10428965
211	0x3e83ee2b	0.25767645
212	0x3f5f9dd8	0.87350225
213	0xbcd35da3	-0.025801485
214	0x3d02961e	0.031881444
215	0x3db84535	0.08997575
216	0x3e910429	0.28323486
217	0xbe82348a	-0.2543071
218	0x3e11dd95	0.14244683
219	0xbe743902	-0.23849872
220	0x3f448bbf	0.76775736
221	0x3e3e5fb3	0.18591194
222	0xbe56c82e	-0.209748
223	0x3fade322	1.358494
224	0x3e9c7ad3	0.30562457
225	0x3f1775f3	0.5916435
226	0x3eddce64	0.43321526
227	0xbef2dda6	-0.4743473
228	0x3ebb2ae3	0.36556157
229	0x3e3deaa2	0.18546537
230	0x3d80e965	0.062945165
231	0x3ea624da	0.3244999
232	0x3f82da81	1.0222932
233	0xbd7ca6f1	-0.061682645
234	0x3e1e675f	0.1546912
235	0x3ec9331e	0.39296812
236	0x3f0f4237	0.5596041
237	0xbe3dceb2	-0.18535879
238	0xbf15830c	-0.58403087
239	0xbf37fd3c	-0.7187078
240	0x3e9b45d2	0.30326706
241	0x3dee51c1	0.11636687
242	0xbf037733	-0.5135376
243	0x3ece31ad	0.40272275
244	0x3c7b76af	0.015348121
245	0x3c303cc8	0.010756679
246	0xbd5e12d4	-0.054217175
247	0x3f8ca8eb	1.098905
248	0xbeda2cb7	-0.4261224
249	0x3f3bf360	0.73418236
250	0xbeb6b396	-0.35683888
251	0xbd970ce7	-0.07375508
252	0x3ea71213	0.32630977
253	0x3f0a5289	0.5403219
254	0x3babc6db	0.0052422113
255	0x3f238d26	0.6388725

bias f4 [8]
0	0xbe062ca8	-0.13102973
1	0xbe3eef44	-0.1864596
2	0xbe062ca8	-0.13102973
3	0xbe3eef4b	-0.1864597
4	0xbd314b18	-0.043284506
5	0xbd95bb94	-0.07311168
6	0xbd314b0c	-0.04328446
7	0xbd95bb99	-0.07311172

weight f4 [64, 2, 2, 1]
0	0xbfa44a7c	-1.2835231
1	0xbe7a6c2a	-0.24455324
2	0x3fea25e1	1.829281
3	0xbe1f8670	-0.15578628
4	0x3d233a00	0.039850235
5	0x3e26256d	0.16225214
6	0x3ee0862c	0.43852365
7	0x3ec38172	0.38184696
8	0xbdb6f7c6	-0.08933978
9	0xbe467b97	-0.19383083
10	0x3d6cd8fe	0.057824127
11	0x3f08b9ba	0.53408396
12	0xbf04b135	-0.51832896
13	0xbf0c41f1	-0.5478812
14	0x3eb2614d	0.3483986
15	0x3fd861cf	1.6904849
16	0x3e48e85c	0.19619888
17	0x3fb10e39	1.3832465
18	0x3e2af66a	0.16695562
19	0xbf1c3580	-0.61019135
20	0xbe9a8098	-0.30176234
21	0x3ea96cbd	0.33090773
22	0x3f3af62d	0.73031884
23	0x3e6191d4	0.22028285
24	0x3e7deb5e	0.24796817
25	0xbf223e91	-0.6337672
26	0xbec73326	-0.3890621
27	0xbf0ca06e	-0.54932296
28	0xbe273c3f	-0.16331576
29	0x3ede9f2b	0.4348081
30	0xbe091a74	-0.13388997
31	0x3d4ee171	0.050507966
32	0x3f070366	0.5273956
33	0xbe16003e	-0.1464853
34	0x3f45a7ed	0.7720936
35	0xbd2b0992	-0.041757174
36	0xbe990c84	-0.2989236
37	0x3eae9e46	0.34105128
38	0x3e3a4816	0.18191561
39	0x3d7d9998	0.061914057
40	0xbe5e72fb	-0.21723549
41	0xbe97a2e7	-0.29616472
42	0x3eaa94df	0.33316705
43	0xbda7a322	-0.08185412
44	0xbeedc193	-0.46436748
45	0xbe0b4f81	-0.13604547
46	0xbe1da57e	-0.15395162
47	0x3f69cfe0	0.9133282
48	0x3da78482	0.08179571
49	0xbf4c3f90	-0.7978449
50	0x3d8ef7ec	0.06980881
51	0x3f2c5768	0.6732087
52	0x3d714838	0.058906764
53	0x3f411474	0.75421834
54	0xbf21a9d2	-0.6314975
55	0x3f841ee9	1.0321933
56	0xbcc06e5b	-0.023490122
57	0xbf469745	-0.7757457
58	0xbc831974	-0.016003348
59	0xbf045059	-0.516851
60	0xbe3e7908	-0.18600857
61	0x3f8cbcd6	1.0995128
62	0x3e925765	0.28582302
63	0xbebf78bd	-0.37396803
64	0xbed74d3a	-0.42051107
65	0xbeff5f96	-0.49877614
66	0x3edc88ff	0.4307327
67	0x3dabd6dd	0.08390591
68	0x3f4111b9	0.7541767
69	0xbcc52efc	-0.024070255
70	0x3f14ef67	0.581778
71	0xbeaffd57	-0.3437297
72	0xbf15bc52	-0.5849048
73	0x3fc03a4f	1.5017794
74	0x3f1d17a2	0.61364186
75	0x3ff67a11	1.9256002
76	0xbeba6de8	-0.36411977
77	0x3e5b936b	0.21442954
78	0xbf1e5abb	-0.61857194
79	0x3e23508e	0.15948698
80	0xbec229c1	-0.3792248
81	0x3dc5fef5	0.0966777
82	0xbede3547	-0.43400022
83	0xbd38f57d	-0.04515599
84	0xbf8891e3	-1.0669521
85	0x3f20f7e8	0.62878275
86	0x3f14427d	0.57913953
87	0x3ec49d92	0.38401467
88	0x3f562a27	0.8365807
89	0xbed75307	-0.42055532
90	0x3f218026	0.63086164
91	0xbeae4d3c	-0.340433
92	0x3c5e4d4e	0.013568236
93	0xbb626ba1	-0.0034549015
94	0xbda1a543	-0.07892849
95	0x3ff40a10	1.9065571
96	0xbd816b81	-0.06319333
97	0x3ea8a99c	0.32941902
98	0x3d844664	0.064587384
99	0xbee4d0f8	-0.4469068
100	0x3fb1916d	1.3872505
101	0xbfc17602	-1.5114138
102	0xbf615960	-0.88027
103	0x3f80834e	1.0040071
104	0xbea68264	-0.32521355
105	0xbe17e284	-0.14832503
106	0x3a942688	0.0011302987
107	0x3f3fb84a	0.7489058
108	0xbf5f37da	-0.871946
109	0x3f079611	0.5296336
110	0x3f670427	0.9024071
111	0x3e995fbc	0.29955852
112	0xbec1548f	-0.37759826
113	0xbe694d0b	-0.22783296
114	0xbf3d204e	-0.7387742
115	0xbc8c4536	-0.017122846
116	0x3f41627e	0.7554091
117	0x3ed2d18e	0.41175503
118	0xbe96076a	-0.2930253
119	0x3e11c6ef	0.14236043
120	0xbf194cf0	-0.5988302
121	0x3f254037	0.6455111
122	0x3f7d8571	0.9903174
123	0x3ecaf185	0.3963739
124	0x3e43577d	0.19076343
125	0x3c967f38	0.01837121
126	0x3ef0b573	0.47013435
127	0xbef6e8ca	-0.4822448
128	0x3ead931d	0.339013
129	0xbed52f1d	-0.41637507
130	0xbcbe4acf	-0.02322903
131	0xbdbe64a9	-0.09296543
132	0x3f776fe9	0.96655136
133	0x3f0cd8b4	0.5501816
134	0xbf8d99e1	-1.1062585
135	0xbebc09bc	-0.36726177
136	0xbf2a446c	-0.66510653
137	0xbe1da93d	-0.1539659
138	0x3f00f6c5	0.5037654
139	0x3fac1988	1.3445292
140	0x3e89db5c	0.2692517
141	0x3f210d43	0.6291086
142	0xbf03f52a	-0.51545966
143	0x3ec717d0	0.38885355
144	0x3daca801	0.08430482
145	0x3fbc336e	1.4703195
146	0xbddce5d1	-0.107860215
147	0x3f8c640f	1.0968035
148	0xbfb09585	-1.379563
149	0xbea2ca45	-0.31794944
150	0xbec44ce3	-0.3833991
151	0xbc06fbb3	-0.008238721
152	0x3f05ef5f	0.52318376
153	0xbea8e028	-0.32983518
154	0x3f0ef762	0.55846226
155	0xbf18319c	-0.594507
156	0x3f5dd97b	0.86659974
157	0xbf3f8df0	-0.74825954
158	0x3dffc693	0.12489047
159	0xbe4e84f4	-0.20167905
160	0xbf22dfb9	-0.63622624
161	0x3ed35669	0.41276863
162	0xbe2c4aa0	-0.16825342
163	0xbe6b7115	-0.22992356
164	0x3f0b2998	0.5436034
165	0x3e287e42	0.16454414
166	0xbf5590be	-0.83423984
167	0x3e183b51	0.14866377
168	0xbfa79c34	-1.3094544
169	0xbe20e7d6	-0.15713438
170	0x3eaf7eb7	0.34276363
171	0x3e66e2e7	0.22547494
172	0x3ef3f8c3	0.47650728
173	0xbe075217	-0.13214909
174	0xbe2c98ae	-0.16855118
175	0xbdd888b5	-0.1057295
176	0x3f0e872f	0.55675024
177	0xbe09ef6c	-0.13470238
178	0x3e29f537	0.16597448
179	0x3f16894d	0.58803254
180	0x3f543e26	0.8290733
181	0xbe18e54b	-0.14931218
182	0xbe827d3e	-0.25486177
183	0x3e9a444c	0.3013023
184	0x3e1457da	0.14486638
185	0xbee8d0a2	-0.45471674
186	0xbf1a47f1	-0.60266024
187	0xbf76700e	-0.9626473
188	0xbdd0d040	-0.101959705
189	0x3f320bc4	0.695492
190	0x3e8614bd	0.26187697
191	0xbe391326	-0.18073711
192	0xbf06573a	-0.5247685
193	0x3d0841d9	0.033265922
194	0x3d35d1cf	0.044389542
195	0x3e8d7f90	0.27636385
196	0xbe20d524	-0.15706307
197	0xbfd9a9c6	-1.7004936
198	0x3cbc09fc	0.02295398
199	0x3f405480	0.75128937
200	0x3eeeb9f7	0.46626255
201	0x3a05faa2	0.00051108946
202	0x3eb4045a	0.3515957
203	0x3f81e372	1.0147536
204	0x3e404573	0.18776493
205	0x3f1c0a33	0.6095306
206	0x3e53cb2e	0.20682976
207	0xbe804c8b	-0.25058398
208	0xbdcad7c1	-0.09904433
209	0x3f463f27	0.7744011
210	0x3d34c5a7	0.04413381
211	0xbf6e16d4	-0.9300358
212	0x3eccb899	0.39984587
213	0x3f112a2e	0.56704986
214	0xbeadbbcc	-0.3393234
215	0x3e9cef1e	0.30651182
216	0x3f518cc5	0.8185542
217	0x3c9d8103	0.019226557
218	0xbf3ae162	-0.73000157
219	0xbe948a6c	-0.29011858
220	0x3c4eb49d	0.012616304
221	0xbe1afbf8	-0.15135181
222	0x3f220781	0.632927
223	0x3e084b82	0.13310054
224	0xbf6aa87b	-0.9166333
225	0x3fabf91b	1.3435396
226	0x3db8b99a	0.09019776
227	0xbf2c28a4	-0.6724951
228	0x3c57cfe5	0.0131721245
229	0xbf714f6f	-0.9426183
230	0xbc0f85ed	-0.008759958
231	0xbf98dcdd	-1.1942402
232	0x3e8d7ee3	0.2763587
233	0x3e9d44e0	0.3071661
234	0x3d42cf90	0.04756123
235	0xbe43ce85	-0.1912175
236	0x3db0c6c5	0.08631662
237	0xbd167f75	-0.036742646
238	0xbeb3c9b9	-0.3511484
239	0xbf06b867	-0.52625126
240	0x3f0de568	0.5542817
241	0xbf854a84	-1.0413365
242	0x3f43733a	0.76347697
243	0x3f82c234	1.0215516
244	0x3eb22ec2	0.34801298
245	0x3ef5d60c	0.48014867
246	0xbdea75f0	-0.11448276
247	0xbf099b1a	-0.5375229
248	0xbb343e40	-0.0027502924
249	0x3f3af3e6	0.7302841
250	0x3c9dfc83	0.019285446
251	0x3f12d9b2	0.57363427
252	0x3f271138	0.6526065
253	0xbe073abf	-0.13206004
254	0xbf4a58a5	-0.7904151
255	0x3ee624c4	0.44949925

bias f4 [64]
0	0xbec79ca6	-0.389867
1	0xbeaec218	-0.34132457
2	0xbe22a048	-0.15881455
3	0xbe9d63af	-0.30740115
4	0x3e7f6a80	0.2494297
5	0xbea46985	-0.32111755
6	0xbecd1ba8	-0.40060163
7	0x3e3ff1fc	0.18744653
8	0xbedf1ac3	-0.43575105
9	0xbeccc4c6	-0.39993876
10	0x3f87312d	1.0561882
11	0xbd88dc0c	-0.066825956
12	0x3f0a2788	0.5396657
13	0x3cd78341	0.026307704
14	0xbf8ef3b6	-1.1168125
15	0xbf10a312	-0.56498826
16	0xbda616c4	-0.08109811
17	0xbf0b45b1	-0.54403216
18	0xbe2e06ce	-0.16994783
19	0x3f6a39f8	0.91494703
20	0xbf69f68b	-0.9139182
21	0x3dace845	0.084427394
22	0x3ec6ab16	0.38802403
23	0xb9377af2	-0.0001749804
24	0xbf93fcba	-1.1561501
25	0xbe482967	-0.19547044
26	0xbe86b023	-0.26306257
27	0x3f4984a0	0.78717995
28	0xbf0e30b5	-0.5554307
29	0xbdf2eff7	-0.11862176
30	0x3e2ddc1a	0.16978493
31	0x3df616c1	0.12016059
32	0xbf818ee9	-1.0121738
33	0x3f0c15b8	0.5472064
34	0xbf332191	-0.69973093
35	0x3f371c72	0.7152778
36	0xbcc3b38a	-0.023889322
37	0xbf8c82a5	-1.097737
38	0xbefdf613	-0.49601802
39	0x3f68ef89	0.909905
40	0x3ec3aedd	0.38219348
41	0xbf6ab873	-0.916877
42	0xbda2c300	-0.079473495
43	0xbf2f1868	-0.68396616
44	0xbe5bea4a	-0.21476093
45	0xbe29cfff	-0.1658325
46	0xbf8713f8	-1.0552969
47	0xbed015f1	-0.4064174
48	0x3e805630	0.25065756
49	0x3f0b5986	0.54433477
50	0xbed71563	-0.42008504
51	0x3e7a0a63	0.24418025
52	0xbf168d6d	-0.5880955
53	0x3f4e990c	0.8070228
54	0xbf6bce9e	-0.9211215
55	0xbee54a4c	-0.44783247
56	0x3f03aa52	0.51431763
57	0x3e8a7203	0.2704011
58	0xbf97feef	-1.1874675
59	0xbe409139	-0.18805398
60	0xbe739f29	-0.23791184
61	0xbef9ebc8	-0.488127
62	0xbde82eb1	-0.11337031
63	0xbe308727	-0.17239057

weight f4 [64, 64, 1, 1]
0	0x3ce3fe4b	0.027831217
1	0xbe986625	-0.2976543
2	0x3e9c52f9	0.30532053
3	0xbe15bedb	-0.14623587
4	0x3da1a0fd	0.07892034
5	0x3e209228	0.15680754
6	0xbd9706fc	-0.07374379
7	0x3dc01f76	0.09381001
8	0x3dca42f1	0.09876049
9	0x3e4ad0ec	0.1980626
10	0xbe2a2851	-0.16616942
11	0x3e36f30a	0.1786615
12	0x3e48ae56	0.19597754
13	0xbe57c370	-0.21070647
14	0xbdc36c2c	-0.095421165
15	0xbe78202c	-0.24231023
16	0xbe5ee328	-0.2176634
17	0x3d4616e7	0.048361685
18	0x3e6da119	0.23205985
19	0x3dcab9fa	0.098987535
20	0x3e4a2abd	0.19742866
21	0xbd9c0667	-0.07618409
22	0x3e81ade0	0.2532797
23	0x3de2f85a	0.110825256
24	0xbd99eef2	-0.07516278
25	0x3d21095e	0.039315574
26	0x3e64692c	0.22305745
27	0x3d4bf9e5	0.049798865
28	0xbd3fc8bb	-0.04682229
29	0xbe9e4972	-0.3091541
30	0x3de96050	0.11395323
31	0xbe358d4c	-0.17729682
32	0x3ded22f7	0.11578935
33	0x3cfe4ffe	0.031044003
34	0xbd6d4e02	-0.057935722
35	0xbea3baf2	-0.31978565
36	0x3d240500	0.04004383
37	0xbddfcbe0	-0.10927558
38	0xbd02650a	-0.03183464
39	0x3cb16556	0.021654766
40	0xbd995b5f	-0.07488131
41	0x3d9313e6	0.0718153
42	0xbd9cfc73	-0.07665338
43	0xbdf6b90f	-0.12047016
44	0x3e46acca	0.19401851
45	0x3b122d23	0.0022304736
46	0x3daf63d1	0.0856396
47	0x3bc719b9	0.0060760644
48	0x3d5990e4	0.053116694
49	0xbe88896c	-0.26667345
50	0x3e20cb89	0.15702643
51	0xbd59fda9	-0.053220425
52	0x3e5ec930	0.21756434
53	0x3e12a639	0.14321221
54	0xbe5bb64e	-0.21456262
55	0xbe6211b6	-0.22077069
56	0xbd36ed23	-0.044659745
57	0xbd512918	-0.05106458
58	0xbdbaa353	-0.09113183
59	0xbd56135c	-0.052264556
60	0xbeca87b8	-0.3955667
61	0xbe2eca5c	-0.17069381
62	0x3e3b08dd	0.182651
63	0xbccf3c1f	-0.025297223
64	0xbd4fcc04	-0.050731674
65	0xbe8eaee0	-0.27867794
66	0x3edecbb9	0.43514803
67	0xbe0fdacb	-0.14048307
68	0xbd48db37	-0.049037185
69	0xbda8fce6	-0.082513615
70	0xbdb8d0f7	-0.09024232
71	0xbd7a0cb4	-0.06104727
72	0x3c1fedfb	0.009761329
73	0xbe7654ec	-0.24055833
74	0xbe13836e	-0.14405605
75	0x3d066995	0.032815535
76	0x3f551984	0.8324206
77	0x3b333989	0.0027347526
78	0x3e26c64e	0.16286585
79	0xbe239674	-0.15975362
80	0xbe8bd5ee	-0.27311653
81	0xbc00fc98	-0.007872723
82	0x3ebfe00a	0.37475616
83	0x3e250875	0.16116507
84	0x3ea1c788	0.31597543
85	0x3e254d14	0.16142684
86	0x3cfaafcb	0.030601403
87	0xbdf7b33a	-0.12094732
88	0xbf13fb20	-0.5780506
89	0xbe853dcd	-0.26023713
90	0x3c190e61	0.009341807
91	0x3c9b9de1	0.018996181
92	0x3d2dded3	0.04244883
93	0x3d8f2b63	0.06990697
94	0xbdcc396a	-0.09971888
95	0x3d5374db	0.051625114
96	0xbecc8620	-0.3994608
97	0x3dab82fb	0.08374592
98	0xbe16ceae	-0.1472728
99	0xbe260ab7	-0.16215025
100	0x3dd5734d	0.104223825
101	0x3d2f06b4	0.042731002
102	0xbf60205e	-0.8754939
103	0xbee75f18	-0.45189738
104	0xbe2120c1	-0.15735151
105	0xbdcba132	-0.09942855
106	0xbdb1d8d0	-0.08683932
107	0xbe31c59b	-0.17360537
108	0x3c306785	0.0107668685
109	0x3dae6ac3	0.08516457
110	0xbeb3afb4	-0.35094988
111	0x3c0f272f	0.008737369
112	0xbdead3f0	-0.11466205
113	0x3e937a12	0.2880407
114	0xbe1f207b	-0.15539734
115	0xbe8b108e	-0.27161068
116	0xbf0e6d01	-0.55635077
117	0x3de05c47	0.109551005
118	0x3e2de73f	0.16982745
119	0xbcbcbf3c	-0.023040406
120	0xbeb3cfc9	-0.35119465
121	0x3e105d7d	0.14098163
122	0xbe06adb0	-0.13152194
123	0xbcda65dd	-0.0266599
124	0x3e16ad41	0.14714529
125	0x3d2d3724	0.042288914
126	0xbd937b5b	-0.072012626
127	0x3e2e8cf2	0.17045954
128	0xbef7f8ac	-0.4843191
129	0x3ed552e4	0.41664803
130	0xbeb9d987	-0.36298773
131	0xbebad5a9	-0.36491135
132	0xb9e31f80	-0.00043320283
133	0xbf1ff9c7	-0.62490505
134	0xbd27ab62	-0.040934928
135	0xbda06df5	-0.07833473
136	0x3d9c76c5	0.07639841
137	0xbb506c20	-0.0031802729
138	0x3e3c557b	0.18391983
139	0xbebbf01a	-0.3670662
140	0xbeca2531	-0.394815
141	0x3e842506	0.25809497
142	0xbd8a7bf1	-0.06761921
143	0xbec1b6d4	-0.378348
144	0x3e73f80b	0.2382509
145	0xbf02ba2e	-0.5106534
146	0x3e3806a1	0.17971279
147	0x3d587df9	0.052854512
148	0x3d0f0d0f	0.034924563
149	0xbea5f211	-0.32411245
150	0x3da0a2da	0.078435615
151	0x3e651113	0.22369795
152	0x3e633158	0.22186792
153	0xbd85b580	-0.06528759
154	0xbe80244d	-0.25027695
155	0xbe797257	-0.24360023
156	0xbec13392	-0.37734658
157	0xbd01f086	-0.03172352
158	0xbeaef96a	-0.34174663
159	0xbdcd5aca	-0.10027082
160	0x3e4eb916	0.20187792
161	0x3e973598	0.29533076
162	0x3d5f0b5d	0.054454196
163	0xbdce390d	-0.10069475
164	0x3c28c740	0.010301411
165	0x3e506210	0.20349908
166	0xbe093816	-0.13400301
167	0x3e4acc4e	0.19804499
168	0x3e145d89	0.14488806
169	0xbe2b282a	-0.1671454
170	0xbd9eff46	-0.07763533
171	0x3cdc0bd6	0.026861113
172	0x3d80cb42	0.06288768
173	0xbbbd3504	-0.005774142
174	0xbcbf90d9	-0.023384498
175	0xbe97a9f1	-0.29621843
176	0xbf7aab81	-0.97917944
177	0x3e6a69ab	0.22891872
178	0xbcf91f6d	-0.030410493
179	0xbe237484	-0.15962416
180	0x3c164605	0.009171967
181	0xbdbb2535	-0.09137956
182	0xbe09d5a7	-0.13460408
183	0xbee0d864	-0.43915093
184	0xbdcbe8fc	-0.099565476
185	0x3d682e6c	0.056684896
186	0xbd9dbf76	-0.07702534
187	0xbea1fe92	-0.31639534
188	0x3e2023d9	0.15638675
189	0xbe0f3d02	-0.13988116
190	0x3ed1ab76	0.40951127
191	0xbed9a156	-0.42505902
192	0xbf156e65	-0.58371574
193	0x3e417fc6	0.18896398
194	0xbe0d864d	-0.13820763
195	0xbe901c51	-0.28146604
196	0x3e9b3449	0.30313328
197	0xbe5b9b36	-0.21445927
198	0x3e2aae27	0.16667996
199	0xbe7934fb	-0.24336617
200	0x3e308f37	0.17242132
201	0xbe3cd11d	-0.18439145
202	0xbf85d54a	-1.0455716
203	0xbf02cf9e	-0.5109805
204	0xbe6f874b	-0.23391454
205	0xbf07f650	-0.5311022
206	0xbf8182cc	-1.0118041
207	0xbc1c2444	-0.009530131
208	0xbf49768e	-0.78696525
209	0xbeccfe91	-0.4003797
210	0xbe7e605f	-0.2484145
211	0xbe65b495	-0.22432168
212	0xbe2ee70c	-0.17080325
213	0xbdbe9b04	-0.09306911
214	0xbeb342a6	-0.35011786
215	0x3e021c10	0.12706017
216	0xbec3498d	-0.38142052
217	0xbe8fd8dd	-0.2809514
218	0xbf47a15c	-0.7798059
219	0xbdaee5c1	-0.08539916
220	0xbe1a0484	-0.15040785
221	0xbe9c2343	-0.30495653
222	0x3f5a3ee8	0.8525224
223	0xbf2b5ed3	-0.66941565
224	0xbf251bbc	-0.64495444
225	0x3e7d9272	0.24762896
226	0xbe672ecd	-0.22576447
227	0xbe6da32a	-0.23206773
228	0xbeb47a66	-0.35249633
229	0x3dea148e	0.11429702
230	0xbf21355f	-0.6297206
231	0xbe9e0ccf	-0.30869147
232	0x3e6854c1	0.22688581
233	0x3eb85901	0.36005405
234	0x3d1f7037	0.038925376
235	0xbe46a6a4	-0.19399506
236	0x3e3294d2	0.17439583
237	0xbf319c82	-0.69379437
238	0xbdd27c4c	-0.10277614
239	0x3ebd2d19	0.3694847
240	0x3cdaa8d0	0.026691824
241	0xc00dba5b	-2.2144992
242	0x3d358825	0.04431929
243	0xbeda50ba	-0.42639714
244	0x3d5e6531	0.054295722
245	0xbf077365	-0.52910453
246	0x3e5bbf6a	0.21459737
247	0x3d9490c9	0.07254178
248	0x3e820b21	0.25399116
249	0xbe7bf566	-0.24605331
250	0xbf361d9d	-0.71138936
251	0x3db7ac5b	0.08968421
252	0xbd04ffb8	-0.032470435
253	0xbdb52055	-0.088440575
254	0xbfd73338	-1.6812506
255	0x3d5cf408	0.053943664

bias f4 [64]
0	0x3e1955e9	0.14974178
1	0xbdbf11ee	-0.09329592
2	0x3e2521f8	0.1612624
3	0x3edb0903	0.42780313
4	0xbe5bdb53	-0.21470384
5	0x3f28ddc8	0.6596341
6	0x3e64b6f9	0.22335424
7	0x3fa79468	1.3092165
8	0x3f13570f	0.57554716
9	0x3e06137c	0.1309337
10	0x3e4c9e0c	0.19982165
11	0xbe60ec3d	-0.21965118
12	0xbefb52ac	-0.4908651
13	0xbea49046	-0.32141322
14	0x3eee2323	0.46511182
15	0xbcb911e2	-0.022591535
16	0x3f1c705d	0.6110895
17	0xbddad553	-0.106852196
18	0x3ea1b5d6	0.31584042
19	0xbf85238a	-1.0401471
20	0xbe963fb2	-0.2934547
21	0xbd525595	-0.05135115
22	0xbd6ee6fe	-0.05832576
23	0x3e35966d	0.17733164
24	0x3e9f85d6	0.31156796
25	0x3eda4f38	0.42638564
26	0x3e386604	0.18007666
27	0xbdc955be	-0.09830807
28	0x3e28d74f	0.16488384
29	0x3f304b0f	0.6886453
30	0xbee42db4	-0.4456612
31	0x3e93fb56	0.28902692
32	0xbe33e640	-0.17568302
33	0xbe68d426	-0.22737178
34	0xbdacbb32	-0.08434142
35	0x3d2f4dda	0.042798854
36	0x3eb19a2f	0.34687945
37	0x3bc93b40	0.0061410964
38	0xbdf52d42	-0.11971523
39	0xbeca4b74	-0.3951069
40	0xbe2f347f	-0.1710987
41	0xbfbb7881	-1.464615
42	0x3efd7fde	0.49511617
43	0x3e050b2d	0.12992544
44	0x3e86c25c	0.2632016
45	0x3e705e5d	0.23473497
46	0xbe57d907	-0.21078883
47	0xbf2c77c3	-0.6737024
48	0xbf486d74	-0.7829201
49	0xbe966b93	-0.29378948
50	0xbe26451b	-0.16237299
51	0x3f5762b3	0.8413498
52	0x3c69ff75	0.014282097
53	0xbf047161	-0.517355
54	0x3da8b1fc	0.08237073
55	0x3eb104b4	0.345739
56	0x3f81757d	1.011398
57	0xbea8dc14	-0.32980406
58	0xbd5ae578	-0.053441495
59	0x3ee3cc89	0.44491985
60	0x3e2280c3	0.15869431
61	0xbda9eea1	-0.08297468
62	0x3e81f04d	0.25378647
63	0x3e27e786	0.16396913

weight f4 [64, 64, 1, 1]
0	0xbf2a0e3c	-0.6642797
1	0xbe82b895	-0.2553145
2	0x3e35ca22	0.17752889
3	0x3c9c80b4	0.01910434
4	0xbc7ec39c	-0.015549567
5	0x3ee92cdf	0.45542046
6	0xbe41a6c1	-0.18911268
7	0xbc31ec92	-0.010859625
8	0xbd6fb46c	-0.058521673
9	0xbdf540f6	-0.11975281
10	0xbe503848	-0.2033397
11	0xbeb08071	-0.34472993
12	0xbe7c054a	-0.24611393
13	0xbcdaab40	-0.026692986
14	0xbf0f8489	-0.5606161
15	0xbe4adad5	-0.1981004
16	0x3ea299de	0.31758016
17	0xbe49f4e5	-0.19722326
18	0x3e4ecaa9	0.20194496
19	0x3e34bd14	0.17650253
20	0xbe34ce54	-0.17656833
21	0xbc785c3a	-0.015158707
22	0xbe1a6351	-0.15076949
23	0x3dd475e4	0.10374048
24	0xbe046f68	-0.12933123
25	0x3ea931be	0.33045763
26	0xbe5e23b2	-0.21693304
27	0xbba28652	-0.00495986
28	0xbf636d18	-0.8883834
29	0xbe0379d6	-0.12839445
30	0xbdfbe7cd	-0.12300072
31	0xbe0559a7	-0.13022481
32	0xbe84b151	-0.25916532
33	0xbedcc658	-0.43120074
34	0xbe06a574	-0.13149053
35	0xbf1e5af6	-0.61857545
36	0x3e31b1fd	0.17353053
37	0xbf19031b	-0.59770364
38	0xbdee3980	-0.11632061
39	0xbed54bc7	-0.41659376
40	0xbe89d514	-0.26920378
41	0xbc922d21	-0.017843785
42	0x3e90dca5	0.28293338
43	0xbc49726a	-0.012295345
44	0xbd49973c	-0.049216494
45	0xbe179dd0	-0.14806294
46	0xbd488080	-0.048950672
47	0xbf151608	-0.5823674
48	0xbe634187	-0.22192965
49	0x3db725c3	0.08942749
50	0xbd82563a	-0.06364103
51	0x3e20a081	0.15686227
52	0xbec1dddb	-0.37864575
53	0x3eae7056	0.3407008
54	0x3cb502ed	0.022096122
55	0xbc0ec4d3	-0.008713919
56	0x3e4f85fe	0.20265958
57	0x3e86d1b2	0.2633186
58	0x3e34145c	0.17585891
59	0xbcc844f6	-0.024446946
60	0xbd3052f3	-0.043047857
61	0x3ea0893b	0.313547
62	0xbea2e231	-0.31813195
63	0x3ece7fa4	0.40331757
64	0xbe246395	-0.16053613
65	0xbe0c57a0	-0.13705301
66	0xbedd04cd	-0.43167725
67	0x3e942a3f	0.2893848
68	0xbed249bc	-0.4107188
69	0xbb8bde56	-0.004268448
70	0x3c2d39d9	0.010572874
71	0xbea4913d	-0.32142058
72	0x3d939ec4	0.072080165
73	0xbd242ea1	-0.04008353
74	0xbe60c315	-0.21949418
75	0xbece872f	-0.40337512
76	0xbe849b50	-0.25899744
77	0xbde8d33c	-0.11368415
78	0x3d86f2fe	0.06589316
79	0x3cd11b61	0.02552575
80	0xbdf593f3	-0.1199111
81	0xbe3723b2	-0.1788471
82	0x3eb3832c	0.35061014
83	0xbd1d79db	-0.03844629
84	0xbee1bf5b	-0.44091305
85	0xbe55d27e	-0.20881078
86	0xbd12c7d6	-0.03583511
87	0x3e47b054	0.19500858
88	0xbf35b679	-0.70981556
89	0xbea16442	-0.31521803
90	0x3c9df656	0.019282501
91	0x3da4eca8	0.08052951
92	0xbdd465b6	-0.10370962
93	0xbf34e34c	-0.7065933
94	0xbdc06439	-0.09394116
95	0xbd9bce67	-0.076077275
96	0x3e01a0b1	0.12658955
97	0xbefd4061	-0.4946318
98	0x3e994c2e	0.29940933
99	0xbf30cef5	-0.6906579
100	0x3e04903e	0.12945649
101	0xbecf2354	-0.4045664
102	0xbe41ea85	-0.18937118
103	0xbb03c10a	-0.0020104074
104	0xbf1c105d	-0.6096247
105	0x3d5692ce	0.052386098
106	0x3e4cac38	0.19987571
107	0x3e6b8b05	0.2300225
108	0x3ea6b475	0.32559553
109	0x3eea7881	0.45795062
110	0x3db973d5	0.09055296
111	0xbcad13e8	-0.021127656
112	0xbe8d3c4d	-0.27585068
113	0x3d250e6c	0.040296957
114	0xbf575484	-0.84113336
115	0x3e99c18e	0.30030483
116	0xbe02fe86	-0.12792405
117	0x3dd73f1c	0.10510084
118	0xbdb7b78c	-0.08970556
119	0xbd919732	-0.07108916
120	0xbd789ba8	-0.06069532
121	0x3b7e79b1	0.0038829858
122	0xbe4c2921	-0.19937564
123	0xbc35ae3b	-0.011088903
124	0xbe8b0a06	-0.27156085
125	0x3e03a7c1	0.12856962
126	0x3ea93ac4	0.33052647
127	0xbe906fc4	-0.2821027
128	0x3d0a8d72	0.0338263
129	0xbd7ab95e	-0.061211936
130	0xbe8a1bc2	-0.26974303
131	0xbf2b79b8	-0.66982603
132	0xbe190845	-0.14944561
133	0x3e4c22af	0.19935106
134	0xbeb73fb8	-0.357908
135	0xbdf6ea4d	-0.12056408
136	0xbfd07f04	-1.6288762
137	0x3e74dc75	0.23912223
138	0x3f5f92c7	0.8733334
139	0xbbff9260	-0.0077994317
140	0xbceae3e5	-0.028673122
141	0xbfb6e0a4	-1.4287305
142	0xbdb48b0d	-0.08815584
143	0xbcd12c41	-0.025533797
144	0xbfc16e31	-1.5111753
145	0xbf2c9bbf	-0.6742515
146	0x3e6eb6d5	0.23311932
147	0x3d9d719b	0.07687684
148	0xbe5af68f	-0.21383117
149	0xbd48f463	-0.04906119
150	0xbdad1215	-0.084507145
151	0xbe4b006d	-0.19824381
152	0xbd577f3b	-0.05261157
153	0xba77dd89	-0.00094553136
154	0x3cfba4fa	0.030718315
155	0x3da671fd	0.0812721
156	0x3ef1062b	0.47075018
157	0xbdb1b1be	-0.0867648
158	0xbe88d0eb	-0.26721892
159	0x3f17024a	0.5898787
160	0xbf1898c0	-0.5960808
161	0xbe3b77e4	-0.18307453
162	0xba504085	-0.00079441845
163	0x3e1d3580	0.1535244
164	0x3e9dce75	0.30821577
165	0xbf27bd70	-0.65523434
166	0xbc8d9f53	-0.017287886
167	0xbdfdbe4d	-0.123898126
168	0xbe80efea	-0.2518304
169	0x3c835ea8	0.016036347
170	0xbd610ace	-0.054941945
171	0x3e2cf683	0.16890912
172	0x3e43b024	0.19110161
173	0x3e34e4f8	0.1766547
174	0xbe46d708	-0.19417965
175	0xbe803993	-0.25043926
176	0x3b99f2ba	0.0046981247
177	0xbe5facd1	-0.21843268
178	0xbee06ebc	-0.43834484
179	0xbec5bf66	-0.38622588
180	0xbec13d90	-0.3774228
181	0x3d3cf00d	0.046127368
182	0xbdbe4887	-0.09291177
183	0xbfea2282	-1.8291781
184	0x3e8a7ac5	0.2704679
185	0xbf438ef8	-0.7639003
186	0xc0006d21	-2.0066607
187	0xbdbf968c	-0.093548864
188	0x3f0115fa	0.5042416
189	0x3e6c0ffd	0.23052974
190	0xbd1b66bc	-0.037939772
191	0x3a8dcc87	0.00108184
192	0x3e480d3d	0.195363
193	0x3c8c7091	0.01714352
194	0xbec051fe	-0.37562555
195	0xbde2483c	-0.11048934
196	0x3cbc4b11	0.022985013
197	0xbf1e90e6	-0.6193985
198	0xbc836ba5	-0.01604254
199	0x3e4c25e8	0.19936335
200	0x3e032b08	0.12809384
201	0xbc1f6be1	-0.00973031
202	0x3e7b26c8	0.24526513
203	0x3e74a537	0.2389115
204	0xbea752ff	-0.32680508
205	0x3d0f2b2d	0.034953285
206	0xbe7b4d60	-0.24541235
207	0xbd9041aa	-0.070437744
208	0x3db67da1	0.089106806
209	0xbe081bf6	-0.13291916
210	0xbe8b9a07	-0.2726595
211	0xbd837b01	-0.064199455
212	0xbe42fba5	-0.19041307
213	0xbcbb962d	-0.022898758
214	0xbeab7eeb	-0.33495268
215	0xbf249a0a	-0.64297545
216	0xbd6cc571	-0.057805482
217	0x3da12826	0.07868986
218	0xbe50a1ec	-0.20374268
219	0x3ded3567	0.11582451
220	0xbedfd278	-0.43715262
221	0x3e3f85fe	0.18703458
222	0x3e8666c0	0.26250267
223	0x3e0c5796	0.13705286
224	0x3d3c6e88	0.04600385
225	0x3d991bb3	0.07475986
226	0xbe302202	-0.17200473
227	0x3da448f7	0.080217294
228	0xbd8e523e	-0.0694928
229	0xbe49e20a	-0.19715133
230	0xbf23c03a	-0.6396519
231	0xbea82d62	-0.32847124
232	0xbeda4d7c	-0.4263724
233	0x3de434ba	0.11142869
234	0xbd9f7a22	-0.07786967
235	0xbe3a693a	-0.18204203
236	0xbd22a6da	-0.039709903
237	0xbe1ba6c5	-0.15200336
238	0xbe0d8c94	-0.13823158
239	0xbeb61e09	-0.3556979
240	0xbdc37b38	-0.095449865
241	0x3d0f0908	0.034920722
242	0xbec5890b	-0.38581118
243	0x3e9ecd66	0.31016082
244	0xbf1344d8	-0.5752692
245	0x3e0ead39	0.13933267
246	0x3e858476	0.26077622
247	0xbd51887e	-0.05115556
248	0xbe05000c	-0.12988299
249	0xbf00d02e	-0.50317657
250	0xbdb423dc	-0.08795902
251	0xbdcc72a5	-0.09982804
252	0xbe9cafd8	-0.30602908
253	0xbd5d05e2	-0.05396069
254	0xbcfb53ec	-0.030679666
255	0xbe48f6c3	-0.19625382

bias f4 [64]
0	0x3e38ade3	0.18035083
1	0x3e5e0b8b	0.21684091
2	0x3e8cfd2e	0.2753691
3	0x3e84da85	0.25947967
4	0x3d7d7e52	0.061888047
5	0xbdfa8226	-0.12231855
6	0x3f1245d5	0.57137805
7	0xbe226751	-0.15859725
8	0xbf0c7b5a	-0.5487572
9	0xbd7e118f	-0.062028464
10	0xbec7422a	-0.38917667
11	0x3e9c20a7	0.30493662
12	0xbdbb4e25	-0.09145764
13	0xbddede29	-0.108822174
14	0x3d9b16ec	0.075727314
15	0x3ea5daa6	0.32393378
16	0x3e3be9a3	0.18350844
17	0x3e8a57c7	0.27020094
18	0x3ed51a5d	0.41621676
19	0x3ed8b8a8	0.42328382
20	0xbdbdaa4d	-0.09260998
21	0x3ee39844	0.44452107
22	0xbd085426	-0.033283375
23	0x3ed53d47	0.41648313
24	0x3f3a45c5	0.7276271
25	0x3f3ee3ae	0.7456616
26	0xbeb07208	-0.34462
27	0x3f08f2f9	0.53495747
28	0xbe4c5e1b	-0.19957773
29	0x3e8fc6a2	0.28081232
30	0x3e511edf	0.20421933
31	0xbdde6aa7	-0.10860186
32	0xbd16d60a	-0.036825217
33	0xbdca6d14	-0.09884086
34	0x3ec3fd79	0.38279322
35	0x3e1c7ab5	0.15281184
36	0xbea673ab	-0.32510123
37	0x3ea45e93	0.32103404
38	0x3f0ebf1d	0.55760366
39	0xbe867535	-0.26261297
40	0x3e0d510f	0.13800453
41	0x3ddd1b8f	0.10796272
42	0x3ea16ac8	0.3152678
43	0x3e74f592	0.23921803
44	0x3e879207	0.26478598
45	0x3ccbef8d	0.0248945
46	0x3e88a629	0.2668927
47	0xbdadf47b	-0.084938966
48	0x3ddc0c75	0.107445635
49	0x3e956ec9	0.29186085
50	0x3e1b176f	0.15145658
51	0x3ec47264	0.38368523
52	0xbbd8a59c	-0.006611539
53	0xbcb8faa3	-0.02258045
54	0xbee3c932	-0.44489437
55	0xbc9a9b53	-0.018872892
56	0xbe9ac28f	-0.3022656
57	0x3edd175b	0.4318188
58	0x3f5f4bd8	0.87225103
59	0x3d623dd5	0.05523475
60	0xbd29e647	-0.041479375
61	0xbe149f6f	-0.14513944
62	0x3e85df2b	0.26146826
63	0xbe1674d3	-0.14693002
